deepsets_model.pt (torch, 213295 bytes, 8 tensors)

encoder.0.weight f4 [128, 2]
-0.5150266 -0.64998233 -0.35684553 0.03534456 -0.10045134 0.75392663 0.32537553 -0.49555156
-0.48954856 -0.8078479 0.08724431 0.16639757 -0.31586325 0.04568762 0.001557948 -0.010171852
-0.13708322 -0.14323609 0.39245453 0.016683362 0.5736275 0.517769 0.17214629 -0.41884613
0.0011756871 -0.010946895 0.28525522 -0.49619502 -0.30711237 -0.8442731 0.018474199 0.03296165
-0.48827627 0.41847822 -0.010182927 -0.0271113 0.5275527 0.7485743 -0.00271092 -0.005362358
0.4300327 -0.26904553 0.12395248 0.06947377 0.12978902 0.90603685 0.017758084 0.014686595
-0.31795743 0.18055291 -0.35679296 -0.05615023 -0.15409487 -0.23591769 -0.58207476 -0.2731907
0.1503959 -0.56143796 0.6693831 -0.15176198 0.3935926 0.70533144 -0.0012496627 -0.0012255046
0.18381517 -0.5516503 -0.17195834 -0.39558783 0.003000687 -0.012059556 0.5079034 0.020220326
0.4779822 -0.13818409 0.7155532 0.53257936 -0.3154769 -0.44981873 0.34997776 0.38419613
0.20147057 0.7445314 0.27507743 0.021067334 0.35224023 0.77599895 0.40248975 -0.30495882
0.53913885 -0.47650322 -0.7748385 -0.11147733 0.18297571 0.26090643 0.31773022 -0.57851297
-0.23170918 -0.7587381 -0.72729844 -0.3351248 0.4223337 0.7709841 0.48906577 0.3765602
0.21575874 0.29245278 -0.2387897 -0.37715918 -0.5986474 -0.4759325 0.0023255653 0.011022107
-0.7466421 0.08289848 -0.5482531 0.31795 0.6993675 -0.6237865 -0.008454835 -0.017598365
0.2467593 0.19707678 0.5526158 0.3823427 -0.0014887672 -0.014572541 -0.24392726 -0.15878876
-0.0021147507 -0.009200144 0.23319735 0.2077981 -0.74033135 0.2324142 -0.55358285 -0.42320096
0.70485 -0.13963999 -0.5446574 0.39824095 -0.5899249 -0.7294567 0.18233123 0.48172405
-0.38084152 0.29315478 0.3111629 0.44151703 -0.34507048 0.502174 0.85718876 0.3417007
-0.15969422 0.78718066 -0.41641474 0.08429301 -0.36388165 0.19050531 -0.26376396 -0.28639612
0.03662374 0.034233626 -0.26308575 0.7080174 0.3540397 -0.066483594 0.50079423 -0.7491703
-0.70059735 0.32900447 -0.011679631 -0.014174179 0.10693023 0.14342727 -0.15212332 0.36044222
0.0070405817 -0.015088009 -0.68497974 -0.36536947 -0.70190907 0.75281733 -0.33984563 0.8379144
-0.50596756 -0.8310497 -0.56954837 -0.08185705 0.2631967 0.46761933 0.1968468 -0.41153374
0.24682213 -0.3151141 -0.091034815 0.023937667 0.047583427 0.03738596 -0.3456358 0.34192613
0.69292015 -0.31598154 0.648229 0.6662405 -0.0017946332 -0.0023083342 0.22683924 0.19908606
-0.466323 0.7420863 -0.30052772 -0.74783033 -0.0016261457 0.019473067 0.12999687 0.06997414
0.029776528 -0.24925663 -0.0055438615 -0.008010953 -0.48505157 -0.7305851 -0.192708 -0.6317071
-0.32442236 -0.034043424 0.66766745 0.42606103 0.036890063 0.6075805 0.7825311 0.4993774
0.12424632 -0.954094 -0.7539799 -0.079703644 -0.32373965 0.38056308 -0.6750266 0.7028226
0.0655719 -0.32080084 -0.21374056 -0.7827538 0.0016742012 -0.003510202 0.31656623 -0.4541904
-0.6602236 -0.6936122 -0.16706406 -0.08816412 -0.57349485 0.3666939 -0.6715438 -0.21304841
00000000: c9d8 03bf 3e65 26bf 75b4 b6be 75c5 103d
00000010: 6fb9 cdbd 5601 413f 9f97 a63e efb8 fdbe
00000020: 1ca6 fabe 1fcf 4ebf 25ad b23d 2064 2a3e
00000030: d4b8 a1be f122 3b3d 0f34 cc3a d7a7 26bc
00000040: 8b5f 0cbe 7bac 12be cdef c83e 8cab 883c
00000050: 40d9 123f 828c 043f 1e47 303e 0073 d6be
00000060: 8319 9a3a 9b5a 33bc f90c 923e 460d febe
00000070: d53d 9dbe 4822 58bf 3457 973c cc02 073d
00000080: 59ff f9be c742 d63e 4bd6 26bc 8418 debc
00000090: b20d 073f 91a2 3f3f b1a9 31bb b8b6 afbb
000000a0: 3f2d dc3e 56c0 89be ccda fd3d 4448 8e3d
000000b0: 6ae7 043e 08f2 673f 6779 913c 0ba0 703c
000000c0: 51cb a2be dde2 383e 91ad b6be c9fd 65bd
000000d0: 0ccb 1dbe 6894 71be da02 15bf a7df 8bbe
000000e0: 6201 1a3e 66ba 0fbf b15c 2b3f 7e67 1bbe
000000f0: f884 c93e 9a90 343f b9cb a3ba 1ca1 a0ba
00000100: 0b3a 3c3e f438 0dbf d915 30be 7d8a cabe
00000110: 2da7 443b 7295 45bc f505 023f 19a5 a53c
00000120: 15ba f43e 2180 0dbe 7f2e 373f 1f57 083f
00000130: 3086 a1be a44e e6be 4930 b33e 5bb5 c43e
00000140: 4d4e 4e3e 9c99 3e3f f3d6 8c3e 6795 ac3c
00000150: d558 b43e dea7 463f 2313 ce3e 9023 9cbe
00000160: 0105 0a3f 3bf8 f3be d15b 46bf 3a4e e4bd
00000170: fc5d 3b3e 8795 853e 89ad a23e 6d19 14bf
00000180: 2c45 6dbe a93c 42bf 3b30 3abf 7a95 abbe
00000190: 1f3c d83e 375f 453f d466 fa3e 80cc c03e
000001a0: dcef 5c3e 5fbc 953e 4a85 74be 021b c1be
000001b0: f540 19bf 6dad f3be 8368 183b 1196 343c
000001c0: f023 3fbf aec6 a93d 515a 0cbf 58ca a23e
000001d0: c009 333f 79b0 1fbf 2686 0abc 722a 90bc
000001e0: 78ae 7c3e 7fce 493e 3b78 0d3f 6cc2 c33e
000001f0: bd22 c3ba abc1 6ebc 11c8 79be 8599 22be
00000200: a197 0abb 33bc 16bc 49cb 6e3e 06c9 543e
00000210: 5b86 3dbf fdfd 6d3e 9bb7 0dbf ccad d8be
00000220: 0d71 343f c9fd 0ebe ab6e 0bbf 3de6 cb3e
00000230: 5105 17bf adbd 3abf 0ab5 3a3e 89a4 f63e
00000240: a9fd c2be 6218 963e be50 9f3e 850e e23e
00000250: 14ad b0be 7a8e 003f b970 5b3f 65f3 ae3e
00000260: e286 23be ac84 493f 5034 d5be d0a1 ac3d
00000270: b24e babe d313 433e 120c 87be 83a2 92be
00000280: c602 163d 8f38 0c3d 2db3 86be a140 353f
00000290: b144 b53e 8d28 88bd 0d34 003f a0c9 3fbf
000002a0: 595a 33bf 4673 a83e ec5b 3fbc d13a 68bc
000002b0: 3dfe da3d 99de 123e 37c6 1bbe e28b b83e
000002c0: aeb4 e63b b233 77bc d55a 2fbf b511 bbbe
000002d0: 50b0 33bf a3b8 403f 3f00 aebe 8f81 563f
000002e0: 1787 01bf acbf 54bf eccd 11bf aba4 a7bd
000002f0: b8c1 863e cd6b ef3e 3592 493e 8db4 d2be
00000300: f1be 7c3e a356 a1be 7670 babd ed18 c43c
00000310: d7e6 423d 0522 193d 2df7 b0be f110 af3e
00000320: 3763 313f 55c8 a1be 56f2 253f bd8e 2a3f
00000330: e639 ebba 6c47 17bb 8c48 683e 37dd 4b3e
00000340: e3c1 eebe 5ef9 3d3f c5de 99be cf71 3fbf
00000350: 6524 d5ba fb85 9f3c e61d 053e 9a4e 8f3d
00000360: e8ed f33c 213d 7fbe 48a9 b5bb 5f40 03bc
00000370: ae58 f8be a007 3bbf 3f55 45be 8eb7 21bf
00000380: b01a a6be 1e71 0bbd 41ec 2a3f ac24 da3e
00000390: 091a 173d 658a 1b3f f553 483f 65ae ff3e
000003a0: db74 fe3d 813f 74bf d404 41bf aa3b a3bd
000003b0: 34c1 a5be 2ad9 c23e 8bce 2cbf 2fec 333f
000003c0: 8f4a 863d 0240 a4be cede 5abe 8e62 48bf
000003d0: df70 db3a 6b0b 66bb f814 a23e a58b e8be
000003e0: 6a04 29bf 9290 31bf d712 2bbe 648f b4bd
000003f0: 8fd0 12bf 4ebf bb3e 4bea 2bbf 5d29 5abe

encoder.0.bias f4 [128]
-0.98136985 0.30310893 -0.22573903 -0.46923158 -0.64720154 0.21166374 0.2651446 -0.05563608
0.21378283 -0.25175822 -0.6393967 -0.42558438 -0.047702022 -0.19742656 0.08383957 -0.12694676
-0.3355514 -0.15613839 -0.4837502 -0.051993538 -0.032998152 0.18466207 -0.15725243 -0.05213558
-0.00800515 0.00012831087 -0.18363804 -0.49623063 -0.36409956 -0.63799113 0.088282466 -0.0171076
-0.05127845 0.30101433 -0.051825676 0.0829402 -0.043027267 -0.50528896 -0.045782696 -0.42484146
0.2666936 -0.38645542 -0.54398954 -0.3673973 -0.71874964 -0.7613316 -0.4256552 0.3863461
0.26078558 -0.61782 -0.44982728 -0.6150424 -0.35088795 -0.00892869 -0.71550524 -0.04110618
-0.8445783 -0.2605226 -0.5277557 -0.119185396 -0.35305184 0.40840745 -0.048520397 0.084572434
-0.0458228 -0.6327577 -0.4268755 -0.45994496 -0.59287244 -0.5774073 -0.84943235 -0.5591402
-0.054826833 -0.3532259 0.13688509 -0.50623614 0.06324887 0.38593492 0.39213926 0.16808239
-0.09908332 -0.4844777 -0.061986756 -0.8467537 -0.5298905 -0.020746117 0.13603738 0.17737246
-0.18603301 -0.72981906 -0.56608605 -0.49297714 -0.06556816 -0.6821257 -0.008407748 -0.21898781
0.17492315 -0.0054542827 0.013339429 0.0066584437 -0.76355416 -0.5851482 -0.058246825 0.1342409
-0.5102003 -0.66361827 -0.06708067 0.19394352 -0.19367537 -0.07379784 0.529868 0.21635868
-0.22369938 -0.82525116 -0.36575317 -0.77143496 -0.13358693 -0.91880816 0.2771115 -0.7910308
-0.16740191 0.11742671 -0.07181386 -0.13146989 -0.3754081 0.172627 -0.44626865 -0.62683505
00000000: 0e3b 7bbf 1831 9b3e 2228 67be 1f3f f0be
00000010: 00af 25bf 61be 583e 08c1 873e a9e2 63bd
00000020: e3e9 5a3e 74e6 80be 81af 23bf 32e6 d9be
00000030: 3263 43bd 302a 4abe 15b4 ab3d 55fe 01be
00000040: 65cd abbe bee2 1fbe 1bae f7be 2df7 54bd
00000050: 1229 07bd 0e18 3d3e c806 21be 1e8c 55bd
00000060: 0828 03bc 308b 0639 9c0b 3cbe f111 febe
00000070: 426b babe 6353 23bf 70cd b43d 3d25 8cbc
00000080: 5a09 52bd 8d1e 9a3e 2947 54bd 8ddc a93d
00000090: 5c3d 30bd 9e5a 01bf a386 3bbd d284 d9be
000000a0: 108c 883e 7cdd c5be e642 0bbf 801b bcbe
000000b0: faff 37bf a1e6 42bf 7aef d9be 28cf c53e
000000c0: b085 853e 7429 1ebf c34f e6be 6b73 1dbf
000000d0: 96a7 b3be a449 12bc 5a2b 37bf f45e 28bd
000000e0: 4936 58bf 3863 85be ff1a 07bf 7917 f4bd
000000f0: 36c3 b4be c81a d13e 53bd 46bd 5034 ad3d
00000100: b0b0 3bbd 69fc 21bf 6d8f dabe e87d ebbe
00000110: 7dc6 17bf f7d0 13bf 6674 59bf d023 0fbf
00000120: 1a92 60bd 06da b4be 9b2b 0c3e b198 01bf
00000130: a088 813d 4399 c53e 7ac6 c83e ca1d 2c3e
00000140: 32ec cabd 760d f8be d3e5 7dbd dac4 58bf
00000150: e7a6 07bf c3f3 a9bc 624d 0b3e 20a1 353e
00000160: 707f 3ebe 6cd5 3abf 04eb 10bf 8067 fcbe
00000170: 9948 86bd ca9f 2ebf a7c0 09bc 573e 60be
00000180: 0e1f 333e d7b9 b2bb 9f8d 5a3c 132f da3b
00000190: 4978 43bf 46cc 15bf 3994 6ebd 7276 093e
000001a0: 7d9c 02bf e3e2 29bf 9761 89bd 2199 463e
000001b0: d652 46be 5223 97bd 6ea5 073f 218d 5d3e
000001c0: 7311 65be a943 53bf 0044 bbbe c37c 45bf
000001d0: 03cb 08be 0337 6bbf 8fe1 8d3e ff80 4abf
000001e0: 686b 2bbe 6a7d f03d 2513 93bd 0ba0 06be
000001f0: 7e35 c0be 22c5 303e 537d e4be 4378 20bf

encoder.2.weight f4 [128, 128]
0.056138407 -0.20111968 -0.15558696 -0.03969168 0.00964384 -0.0013754966 -0.09394247 0.007057133
0.06114391 0.026657406 -0.042617854 -0.28131652 -0.090798736 0.06944755 -0.34645623 0.07878668
-0.041475452 -0.0004312881 0.072666846 0.06318224 0.03747711 -0.035756763 0.09062606 -0.052786265
0.03657797 -0.06796834 0.012953099 0.06312381 0.012161438 -0.06503929 0.034363132 -0.09408489
-0.03249721 0.026762513 -0.0058854613 -0.052508436 -0.08995497 -0.006189636 -0.103154995 0.040256456
0.035894 0.014552053 -0.15842925 -0.10957983 -0.12556185 -0.07280676 -0.038210563 -0.056260083
0.09883934 0.054950017 0.08497058 0.011919708 0.06836239 -0.12565567 0.062078025 -0.053952597
0.053864166 0.05217444 -0.014308404 0.051401645 0.041098356 0.051637016 0.06644716 0.04244681
-0.19743451 -0.066861585 0.08106725 -0.0489705 0.037538756 0.030018967 -0.05213294 0.057853136
-0.05284849 0.058483325 -0.13787289 -0.057625294 -0.08053689 -0.12692216 -0.11771954 -0.19481994
0.056971606 -0.034549236 -0.021476213 -0.07935523 -0.025542703 -0.07261684 0.027085258 -0.0672037
0.047663517 0.052238088 -0.090364456 -0.044742487 -0.09114749 0.08059337 0.032701436 -0.030394325
-0.040595815 -0.07928587 -0.004712526 -0.13322611 -0.039017458 -0.04977789 0.027987866 -0.0036463032
0.021217179 0.015019828 -0.006130681 0.016494306 0.0369972 0.043336395 0.033488408 0.10359562
0.07452892 -0.086044066 0.028070051 -0.02832876 0.14365655 -0.043619376 -0.061167102 -0.07034596
-0.042428814 0.07238992 -0.093890324 -0.040470798 0.011294827 -0.0451186 -0.07926494 -0.012120527
0.07541908 0.029325131 0.050191298 0.009551499 -0.06497082 -0.052801806 -0.10163925 -0.043347646
0.035278067 -0.036252905 0.05655849 -0.00732265 -0.048378866 -0.0719212 0.04216549 -0.07612849
-0.038840152 0.06636897 -0.06292933 -0.077700384 -0.016430223 -0.06289233 0.07105645 -0.10572899
-0.08916454 -0.08122341 -0.04364602 -0.059513427 0.03847524 -0.065305606 -0.10667941 0.053802986
0.0066542723 -0.03344809 -0.035848774 0.049407892 -0.034695506 -0.042205695 -0.07945579 0.07668247
-0.09388799 -0.021730242 -0.06724949 -0.029478747 -0.0062273517 0.03922789 -0.03291773 0.06570358
-0.06490465 -0.025301067 -0.053792275 -0.033409763 0.047406238 0.0020989561 -0.009304185 -0.107256815
-0.064495206 -0.049121838 -0.04428892 0.04786992 -0.0437549 -0.11285423 -0.050650056 -0.040975284
-0.00014646581 -0.020029532 0.016265942 0.027706005 -0.022711392 0.01219301 0.01738645 0.10316312
-0.05677928 -0.0018680852 -0.0069236946 -0.027764386 0.017120462 -0.09186342 -0.013628487 0.034005217
0.02913141 -0.037455484 -0.061347373 0.07669376 0.03437176 -0.009334909 -0.10327346 0.00759905
0.044727452 0.09490026 0.048642065 0.058067977 0.024901202 -0.020617196 -0.02393474 0.063002765
0.050889615 0.052588087 -0.07430775 -0.013245828 -0.045718875 -0.08567761 0.0032794706 0.031155413
0.06781168 0.09491232 0.03231947 0.010576455 0.017678333 0.021043723 0.03942809 0.0208571
0.0019214363 -0.07040099 -0.030939877 -0.052142352 -0.058929354 -0.070471734 -0.08311661 0.058478784
-0.09003984 -0.043936394 0.05918217 0.05567068 -0.063727796 -0.03969659 -0.10541858 0.01150922
00000000: 63f1 653d 51f2 4dbe 3052 1fbe be93 22bd
00000010: 3201 1e3c 024a b4ba e964 c0bd 863f e73b
00000020: 0972 7a3d a260 da3c 0f90 2ebd b808 90be
00000030: b0f4 b9bd 843a 8e3d b662 b1be e95a a13d
00000040: 2ae2 29bd 821e e2b9 5bd2 943d b165 813d
00000050: 9981 193d af75 12bd 289a b93d 6936 58bd
00000060: c8d2 153d fc32 8bbd 3c39 543c 0e47 813d
00000070: c540 473c 5233 85bd 5bc0 0c3d 94af c0bd
00000080: cb1b 05bd 0f3d db3c d4da c0bb 1613 57bd
00000090: 503a b8bd 6ed2 cabb ed42 d3bd f4e3 243d
000000a0: 9605 133d bc6b 6e3c 473b 22be 646b e0bd
000000b0: 4993 00be b61b 95bd ae82 1cbd f970 66bd
000000c0: 486c ca3d 4513 613d 0e05 ae3d e14a 433c
000000d0: 9501 8c3d e1ab 00be 8745 7e3d 66fd 5cbd
000000e0: aca0 5c3d deb4 553d cc6d 6abc 888a 523d
000000f0: c056 283d 5681 533d 7315 883d b5dc 2d3d
00000100: 462c 4abe baee 88bd 9606 a63d 4a95 48bd
00000110: 3dc2 193d 56ea f53c 5a89 55bd 69f7 6c3d
00000120: a977 58bd 368c 6f3d 8d2e 0dbe 8008 6cbd
00000130: 86f0 a4bd e2f7 01be f116 f1bd e17e 47be
00000140: 0f5b 693d 8083 0dbd e2ee afbc ff84 a2bd
00000150: ee3e d1bc 23b8 94bd e7e1 dd3c 18a2 89bd
00000160: d23a 433d 9bf7 553d 0011 b9bd e643 37bd
00000170: 89ab babd 230e a53d f1f1 053d 85fd f8bc
00000180: cc47 26bd a160 a2bd 896b 9abb 6d6c 08be
00000190: c5d0 1fbd e7e3 4bbd cf46 e53c d1f6 6ebb
000001a0: a6cf ad3c ba15 763c e1e3 c8bb 111f 873c
000001b0: 608a 173d 8181 313d 242b 093d f129 d43d
000001c0: 9ea2 983d df37 b0bd 2af3 e53c b711 e8bc
000001d0: b41a 133e 3baa 32bd 5b8a 7abd 8b11 90bd
000001e0: d6c9 2dbd 2b41 943d 9249 c0bd b5c4 25bd
000001f0: f00d 393c 48ce 38bd a855 a2bd 2d95 46bc
00000200: 5275 9a3d 423b f03c 6495 4d3d e47d 1c3c
00000210: 6c0f 85bd b546 58bd 3d28 d0bd 4d8d 31bd
00000220: bc7f 103d ed7d 14bd e0a9 673d d7f2 efbb
00000230: eb28 46bd 6c4b 93bd b9b5 2c3d 41e9 9bbd
00000240: da16 1fbd 74ec 873d 18e1 80bd 6121 9fbd
00000250: ad98 86bc b2cd 80bd 0b86 913d 7188 d8bd
00000260: e69b b6bd 7658 a6bd 2bc6 32bd 5ac4 73bd
00000270: 3798 1d3d f2be 85bd bc7a dabd 8560 5c3d
00000280: 150c da3b dd00 09bd 2ad6 12bd ee5f 4a3d
00000290: e01c 0ebd e1df 2cbd b8b9 a2bd b30b 9d3d
000002a0: 5948 c0bd 9f03 b2bc 1aba 89bd 6a7d f1bc
000002b0: d00e ccbb 6dad 203d bed4 06bd 998f 863d
000002c0: bbec 84bd 2f44 cfbc 4a55 5cbd add8 08bd
000002d0: 0b2d 423d a48e 093b 9570 18bc 76a9 dbbd
000002e0: 1016 84bd fb33 49bd 4c68 35bd 4013 443d
000002f0: 5738 33bd 1e20 e7bd 6f76 4fbd b3d5 27bd
00000300: 9e94 19b9 f914 a4bc 2740 853c b4f7 e23c
00000310: 3e0d babc 31c5 473c 076e 8e3c 3047 d33d
00000320: 6491 68bd 8ada f4ba 29e0 e2bb 2372 e3bc
00000330: 3640 8c3c e422 bcbd 044a 5fbc 0e49 0b3d
00000340: ffa4 ee3c ec6a 19bd 6247 7bbd 9e11 9d3d
00000350: 67c9 0c3d 72f1 18bc 0981 d3bd 7401 f93b
00000360: 2234 373d 115b c23d e73c 473d b0d8 6d3d
00000370: 9bfd cb3c 65e5 a8bc ca12 c4bc 9807 813d
00000380: a171 503d 9b66 573d a92e 98bd 0805 59bc
00000390: b743 3bbd be77 afbd 63ec 563b a339 ff3c
000003a0: dae0 8a3d 6461 c23d 6c61 043d de48 2d3c
000003b0: 27d2 903c e363 ac3c 597f 213d 82dc aa3c
000003c0: b4d8 fb3a 652e 90bd a075 fdbc 3893 55bd
000003d0: e85f 71bd 7c53 90bd 0b39 aabd 7387 6f3d
000003e0: cf66 b8bd a6f6 33bd 0169 723d f006 643d
000003f0: b883 82bd e498 22bd b2e5 d7bd 2b91 3c3c

encoder.2.bias f4 [128]
-0.09586152 -0.0977423 -0.08790707 0.004363602 -0.01663716 -0.06469721 -0.14227317 -0.0011731669
-0.12805569 -0.020864604 0.040076498 -0.04400525 -0.041233893 -0.103717335 0.007263453 -0.07534641
-0.08364466 -0.07906093 -0.08120915 -0.10337016 -0.06747354 -0.07746996 -0.082318395 0.033384264
-0.10840528 0.04413731 -0.03885768 0.015850263 -0.0031930208 -0.05254243 0.047949255 -0.10054064
0.016237183 -0.1254141 -0.004924565 -0.14481008 0.004931922 -0.030483147 -0.052131027 0.092865355
0.01845347 -0.16468094 0.0038734933 0.1002798 0.044883613 -0.058615044 0.018231854 -0.038224757
-0.14302425 -0.023502743 -0.16529915 -0.011772421 -0.100709766 -0.08069938 -0.0148938745 -0.08342693
-0.04054895 0.013469068 -0.092830986 -0.062264238 -0.17914872 -0.09481873 -0.20696703 -0.08487075
-0.12514347 -0.15947087 -0.056064297 -0.07608421 -0.028238064 0.04752364 0.040108923 -0.07495533
-0.00029260476 0.03523984 -0.0033336307 0.032332126 0.050110955 -0.0644687 -0.03839213 -0.097140625
0.0043392032 0.08389434 0.10061966 -0.0067089163 -0.03512797 0.015375047 0.014009268 0.0032136189
-0.041077506 -0.0243246 0.025632119 0.0334262 0.029045459 -0.11874266 0.036447503 -0.023152476
0.014122691 -0.15045284 0.042064615 -0.123091936 -0.017691279 -0.045065038 0.01768732 -0.039203133
0.017881382 -0.04158719 -0.17159688 -0.0022672897 0.03509449 -0.03347411 0.024382306 -0.112886466
-0.09842379 -0.06471916 0.066958286 -0.08076544 -0.093434244 -0.1100757 0.01588522 -0.0064908806
-0.078048654 0.09307352 -0.050448723 -0.007098426 0.0051610717 -0.009312566 -0.0010474117 0.018590996
00000000: 0b53 c4bd 1d2d c8bd 9f08 b4bd 8cfc 8e3b
00000010: a74a 88bc f97f 84bd 0fb0 11be f3c4 99ba
00000020: 0821 03be 3fec aabc 4127 243d d93e 34bd
00000030: dfe4 28bd c169 d4bd 4302 ee3b 384f 9abd
00000040: e44d abbd b2ea a1bd fc50 a6bd bcb3 d3bd
00000050: 912f 8abd 92a8 9ebd 8c96 a8bd f0bd 083d
00000060: 9603 debd 53c9 343d 3b29 1fbd 69d8 813c
00000070: 0042 51bb bb36 57bd 7066 443d 40e8 cdbd
00000080: d703 853c 8e6c 00be 3f5e a1bb 1849 14be
00000090: f69b a13b cbb7 f9bc 5887 55bd 3130 be3d
000000a0: bb2b 973c 1fa2 28be 6fda 7d3b 7f5f cd3d
000000b0: e1d7 373d 5416 70bd f85a 953c 9091 1cbd
000000c0: f374 12be d388 c0bc 2e44 29be 1de1 40bc
000000d0: ec40 cebd b745 a5bd 7005 74bc bddb aabd
000000e0: a816 26bd 5ead 5c3c 2c1e bebd c908 7fbd
000000f0: c372 37be 5330 c2bd 2aef 53be b7d0 adbd
00000100: 9c25 00be 554c 23be ada3 65bd 0ad2 9bbd
00000110: 8353 e7bc 26a8 423d 4149 243d 2e82 99bd
00000120: bf68 99b9 a757 103d 0b79 5abb b16e 043d
00000130: 2541 4d3d 2a08 84bd 1141 1dbd aaf1 c6bd
00000140: e02f 8e3b ccd0 ab3d ae11 ce3d 78d6 dbbb
00000150: 59e2 0fbd 9fe7 7b3c 2187 653c 949b 523b
00000160: e340 28bd 6244 c7bc 73fa d13c e9e9 083d
00000170: bef0 ed3c 5a2f f3bd fa49 153d 43aa bdbc
00000180: dc62 673c 4f10 1abe f24b 2c3d a017 fcbd
00000190: 4ded 90bc 1e96 38bd 00e5 903c 7793 20bd
000001a0: fa7b 923c 5457 2abd 18b7 2fbe cf96 14bb
000001b0: 3dbf 0f3d 261c 09bd 67bd c73c 0531 e7bd
000001c0: 6992 c9bd 7b8b 84bd 6d21 893d 5a68 a5bd
000001d0: 745a bfbd 5e6f e1bd b921 823c 74b1 d4bb
000001e0: f9d7 9fbd 549d be3d 52a3 4ebd ea99 e8bb
000001f0: 351e a93b bc93 18bc 4e49 89ba 254c 983c

decoder.0.weight f4 [128, 128]
-0.06798004 0.05050401 -0.05571965 -0.051814556 -0.024031343 0.034746915 -0.03350154 -0.0357818
0.08625359 -0.06266818 0.038454596 0.014671771 -0.035053946 0.03279451 0.013623817 -0.038802378
-0.05206475 -0.018316539 0.07720155 0.026121773 -0.04169358 -0.08369109 -0.050853334 -0.11572427
-0.040581536 -0.07747251 0.07996846 -0.08124316 -0.043614075 0.022547731 0.008871949 0.007688523
0.07494272 -0.06492872 0.015529259 0.043360855 -0.062318686 0.075827904 -0.05071272 0.0291587
-0.0457433 -0.06903155 -0.0294976 0.06874202 0.009522448 -0.015524175 -0.014657841 -0.064451635
0.060849827 -0.101633325 -0.06921104 -0.058618143 0.0066952165 -0.10592178 0.013419366 -0.031995084
-0.112576604 -0.03480958 -0.022197999 -0.08861344 0.030744428 -0.064244494 -0.07388369 -0.009924334
-0.0034547455 -0.02283919 -0.11719036 0.08803723 0.0069321766 -0.023898 -0.06977447 -0.010155905
-0.0709405 0.022683129 -0.053583037 0.011819461 0.015889846 -0.047858387 -0.023245884 -0.072073594
-0.005183841 -0.093505956 -0.08452423 0.08069255 -0.06997503 0.030381734 -0.08569593 -0.060637303
0.082903154 0.024512839 -0.034929115 0.06815814 -0.10461092 -0.05877597 -0.048149772 -0.054883573
0.06843472 -0.042649996 -0.011035303 0.04877445 0.034464173 -0.085862875 -0.055959307 0.04552495
0.035018113 -0.11891567 0.03924251 -0.06666652 -0.06566924 0.0020396968 0.017067693 -0.07709854
-0.07536199 -0.09298437 -0.0011649072 -0.025804598 -0.050408706 0.015675204 0.0011668856 0.06603464
-0.031522818 -0.078697525 0.053984784 -0.05107787 -0.022450568 0.07919283 0.08211494 -0.11592561
-0.08175069 -0.06091289 -0.084412724 0.005754928 -0.06637458 0.0036926942 -0.068089955 -0.08869535
-0.022323258 0.024769587 -0.0015241009 0.06954705 0.07420768 -0.022693485 0.055632457 -0.047424946
0.07841739 0.033772945 -0.03649328 -0.0022717773 -0.07989965 0.06392025 -0.020727826 -0.0061584753
-0.05782057 -0.036187403 -0.019802155 0.006943507 0.071869574 -0.06283861 -0.096681006 -0.058731865
-0.08901006 -0.08515994 0.026253436 0.051870424 -0.0037548116 -0.08434551 0.042329647 -0.10760107
0.018269176 -0.09364111 -0.08203143 0.022952022 -0.01206316 0.0066247587 -0.02764385 0.0037157403
0.07541348 0.016676089 -0.027155058 0.027918424 -0.08312527 -0.049946688 0.032824486 -0.028114665
-0.07344467 -0.07934309 0.06770939 -0.07371611 0.07981937 -0.051513016 -0.04367455 0.015284321
0.066722944 -0.024270328 -0.015393002 0.0051010028 0.016526256 -0.012214824 -0.11250148 -0.064569555
0.048527084 -0.053470753 0.029975425 0.071314484 0.06575819 -0.056377754 -0.0043264404 -0.030392153
-0.035328038 -0.045156278 -0.04648927 0.06501646 0.07650619 -0.0907252 -0.0058638267 0.06622724
-0.043405622 -0.058848772 -0.036801584 -0.040570732 0.018313227 -0.044253618 0.06818316 -0.080014475
0.03561952 0.029804902 -0.10222579 0.06469979 0.045311823 -0.084254265 -0.03480934 -0.06578837
-0.06113219 0.031228773 0.06039094 0.0072156354 -0.044115085 0.05954693 0.024177808 0.008983392
-0.020315891 -0.009400385 0.049933683 -0.03762871 -0.06285727 -0.018770453 -0.0015568861 -0.046591926
-0.071910635 -0.10927654 -0.026705485 -0.03279325 0.042712588 -0.016335493 -0.08779312 0.027169844
00000000: 1f39 8bbd 4bdd 4e3d 4a3a 64bd 803b 54bd
00000010: 61dd c4bc c852 0e3d e938 09bd f08f 12bd
00000020: b9a5 b03d 2d58 80bd 9182 1d3d de61 703c
00000030: ba94 0fbd 8953 063d 6e36 5f3c 3eef 1ebd
00000040: d941 55bd 910c 96bc d91b 9e3d 54fd d53c
00000050: e3c6 2abd 3c66 abbd 964b 50bd d900 edbd
00000060: d338 26bd e8a9 9ebd 81c6 a33d d062 a6bd
00000070: aca4 32bd 05b6 b83c a75b 113c 01f0 fb3b
00000080: 927b 993d 59f9 84bd 6f6e 7e3c 279b 313d
00000090: e141 7fbd a94b 9b3d 24b8 4fbd 3ade ee3c
000000a0: 545d 3bbd 6a60 8dbd f3a4 f1bc 9ec8 8c3d
000000b0: 0b04 1c3c 1c59 7ebc 7127 70bc 38ff 83bd
000000c0: ab3d 793d 2225 d0bd 85be 8dbd 9419 70bd
000000d0: 8c63 db3b 85ed d8bd e7dc 5b3c 470d 03bd
000000e0: 908e e6bd 7d94 0ebd 94d8 b5bc f77a b5bd
000000f0: bddb fb3c 9e92 83bd 5550 97bd ac99 22bc
00000100: 0369 62bb 4119 bbbc 8001 f0bd dd4c b43d
00000110: 5027 e33b bdc5 c3bc ebe5 8ebd f464 26bc
00000120: 4149 91bd f8d1 b93c e379 5bbd 6aa6 413c
00000130: 6c2b 823c 2807 44bd 276e bebc 529b 93bd
00000140: 36dd a9bb 0d80 bfbd 0a1b adbd 2342 a53d
00000150: 124f 8fbd 1de3 f83c 5981 afbd d25e 78bd
00000160: 21c9 a93d 26cf c83c d511 0fbd 7f96 8b3d
00000170: 403e d6bd 12bf 70bd b238 45bd 99cd 60bd
00000180: 8127 8c3d c3b1 2ebd 6acd 34bc b8c7 473d
00000190: 4e2a 0d3d e0d8 afbd 9635 65bd 5f78 3a3d
000001a0: 276f 0f3d 0f8a f3bd c1bc 203d 7588 88bd
000001b0: 987d 86bd 6fac 053b 8cd1 8b3c d7e5 9dbd
000001c0: 6357 9abd 976e bebd cdaf 98ba 2a64 d3bc
000001d0: 5c79 4ebd 4969 803c 2ff2 983a 2b3d 873d
000001e0: 121e 01bd 2b2c a1bd 261f 5d3d 0737 51bd
000001f0: 41ea b7bc da2f a23d e12b a83d 686a edbd
00000200: e86c a7bd cb7f 79bd 94e0 acbd d693 bc3b
00000210: 65ef 87bd 2101 723b bf72 8bbd e8a5 b5bd
00000220: 44df b6bc 97e9 ca3c 57c4 c7ba af6e 8e3d
00000230: 32fa 973d b0e7 b9bc dcde 633d a940 42bd
00000240: 4c99 a03d 8055 0a3d fa79 15bd 19e2 14bb
00000250: 6da2 a3bd 9fe8 823d 67cd a9bc 09cd c9bb
00000260: 43d5 6cbd 3e39 14bd 2138 a2bc 5c86 e33b
00000270: 5b30 933d 87b1 80bd b100 c6bd d390 70bd
00000280: e84a b6bd 5668 aebd 7211 d73c 1576 543d
00000290: 4913 76bb 57bd acbd da61 2d3d f35d dcbd
000002a0: 3da9 953c e9c6 bfbd 1800 a8bd e105 bc3c
000002b0: 8fa4 45bc 8114 d93b 5b75 e2bc c783 733b
000002c0: 6272 9a3d 4b9c 883c 4974 debc 2eb5 e43c
000002d0: 953d aabd e694 4cbd f872 063d ba50 e6bc
000002e0: 296a 96bd a17e a2bd 38ab 8a3d 79f8 96bd
000002f0: 5678 a33d 50ff 52bd 16e4 32bd 176b 7a3c
00000300: 0aa6 883d 91d2 c6bc ee32 7cbc 5026 a73b
00000310: 1262 873c af20 48bc 2d67 e6bd 0b3d 84bd
00000320: 56c4 463d 2604 5bbd 068f f53c 540d 923d
00000330: 3bac 863d 5cec 66bd d0c4 8dbb f7f8 f8bc
00000340: 22b4 10bd caf5 38bd 886b 3ebd 5a27 853d
00000350: 47af 9c3d 22ce b9bd 5825 c0bb 26a2 873d
00000360: 18ca 31bd 690b 71bd 42bd 16bd 7f2d 26bd
00000370: 9f05 963c 4843 35bd 9da3 8b3d a1de a3bd
00000380: c6e5 113d 6929 f43c c15b d1bd 5381 843d
00000390: e498 393d 808d acbd 3d94 0ebd 0ebc 86bd
000003a0: bf65 7abd 7cd3 ff3c 7e5c 773d 2371 ec3b
000003b0: 05b2 34bd 7be7 733d 8a10 c63c 142f 133c
000003c0: 836d a6bc 1304 1abc 4387 4c3d 9020 1abd
000003d0: 50bb 80bd 7ec4 99bc 6e10 ccba 2dd7 3ebd
000003e0: e245 93bd 61cc dfbd 76c5 dabc 3752 06bd
000003f0: 65f3 2e3d 03d2 85bc e1cc b3bd 4b93 de3c

decoder.0.bias f4 [128]
-0.04909356 0.03114941 0.29858828 -0.080705374 -0.12249488 -0.11004241 -0.05443475 0.3056852
-0.044467874 0.45759696 -0.14392273 -0.026673714 -0.07629464 0.49472964 0.52952737 -0.0874386
0.3580404 -0.013760185 -0.018782048 -0.014934749 0.0016212163 0.8170091 -0.10533328 -0.1417348
-0.0990081 0.63032866 -0.0972597 -0.0709911 0.32492784 -0.22451416 -0.02987052 -0.0608566
0.021667149 -0.07834204 -0.08382694 0.5681521 0.51035327 -0.06445208 -0.09170255 -0.046912495
-0.007758025 -0.10081618 -0.13043652 -0.043926876 -0.017219646 -0.10474333 0.057107087 -0.060281143
0.051635604 0.0021819288 -0.11351559 -0.03320458 -0.12990153 -0.11627755 0.3000141 -0.043625236
-0.04628965 -0.08588847 0.031187125 -0.08420327 -0.0916828 0.010931154 -0.119925946 -0.021958819
0.013015005 -0.06339344 -0.11092936 0.036039565 -0.06748418 0.5068395 -0.07172187 -0.117240995
0.4808759 -0.016895322 -0.0331895 -0.028137024 -0.07147736 0.048929133 -0.041937187 -0.06386154
0.05085187 -0.14505248 -0.05797715 -0.12188931 0.017931176 -0.010834203 -0.5354447 -0.04753999
-0.006267409 -0.016012575 0.0012181586 0.37367305 -0.12117911 -0.050005592 -0.048163842 0.02452482
0.46490738 -0.0707284 0.005480368 -0.03583591 -0.050765056 0.04176309 -0.10165225 0.7408569
-0.0427384 -0.066390105 -0.12503569 0.2893085 -0.16514598 -0.0078390455 -0.027769411 0.15845388
0.8711071 -0.008121014 -0.103994064 -0.0761153 -0.11164742 -0.1364063 -0.021059921 -0.05890952
-0.038720928 -0.10763334 -0.1741089 -0.025964545 -0.11108609 0.038810372 0.028220812 -0.07398365
00000000: 5416 49bd 0c2d ff3c 90e0 983e dc48 a5bd
00000010: 98de fabd ea5d e1bd f9f6 5ebd c582 9c3e
00000020: f223 36bd 264a ea3e 7b60 13be d582 dabc
00000030: 5d40 9cbd 344d fd3e 1b8f 073f 0213 b3bd
00000040: 1251 b73e 6672 61bc cfdc 99bc e1b0 74bc
00000050: fe7e d43a 8227 513f fab8 d7bd ed22 11be
00000060: c2c4 cabd 385d 213f 1830 c7bd c863 91bd
00000070: f15c a63e 0ae7 65be 05b3 f4bc c544 79bd
00000080: 4e7f b13c cb71 a0bd 75ad abbd 6b72 113f
00000090: 83a6 023f 74ff 83bd 8cce bbbd 5127 40bd
000000a0: 0837 febb b778 cebd 2791 05be abec 33bd
000000b0: 3710 8dbc ac83 d6bd 1fe9 693d 5ce9 76bd
000000c0: db7f 533d b1fe 0e3b dd7a e8bd 8701 08bd
000000d0: e804 05be ed22 eebd 739b 993e 60b0 32bd
000000e0: 379a 3dbd 4be6 afbd 247c ff3c c472 acbd
000000f0: 31c4 bbbd 9518 333c bc9b f5bd fbe2 b3bc
00000100: e33c 553c 6bd4 81bd ef2e e3bd 399e 133d
00000110: 2535 8abd 3cc0 013f eae2 92bd 0c1c f0bd
00000120: 5e35 f63e 0f68 8abc b7f1 07bd 9e7f e6bc
00000130: b962 92bd ea69 483d 54c6 2bbd d7c9 82bd
00000140: 0d4a 503d a388 14be 7379 6dbd 1aa1 f9bd
00000150: 67e4 923c f181 31bc e712 09bf 4bb9 42bd
00000160: d65e cdbb ce2c 83bc 9faa 9f3a 1352 bf3e
00000170: c12c f8bd aad2 4cbd 7347 45bd 46e8 c83c
00000180: 5708 ee3e 0dda 90bd a994 b33b adc8 12bd
00000190: 05ef 4fbd c60f 2b3d 0e2f d0bd cca8 3d3f
000001a0: 760e 2fbd 89f7 87bd 5b09 00be 3e20 943e
000001b0: 071c 29be 576f 00bc ad7c e3bc bc41 223e
000001c0: e000 5f3f 000e 05bc d7fa d4bd 57e2 9bbd
000001d0: 67a7 e4bd 18ae 0bbe db85 acbc 1c4b 71bd
000001e0: d699 1ebd de6e dcbd 9a49 32be 99b3 d4bc
000001f0: 1b81 e3bd a0f7 1e3d 552f e73c bd84 97bd

decoder.2.weight f4 [147, 128]
-0.023523716 -0.0507689 0.0055133766 -0.05214324 0.078555055 -0.102874346 0.033698156 -0.039570555
-0.017358527 -0.04519034 0.07836058 -0.033790518 -0.056775067 -0.030878127 -0.057193853 -0.038711373
-0.031526867 0.07685877 0.019523464 0.072989784 0.043909203 -0.045522597 0.051148742 -0.00057584565
0.069929704 -0.010366479 -0.045977354 -0.05502029 -0.05700687 0.007118198 0.005838513 0.034870036
0.038720112 -0.04390672 0.09569398 0.0049085873 -0.009499367 0.029212806 -0.061815973 -0.0697003
-0.0095695695 0.002948591 0.0869561 -0.019514645 -0.004504096 0.104505554 0.0089602005 0.017505305
-0.016458595 -0.044769708 -0.00881335 0.04993766 0.0042862063 0.005843718 -0.04907278 0.024404816
0.073820695 0.07465271 0.0018615578 -0.03557916 0.0045985878 -0.047104634 0.012293708 0.03662578
-0.021207852 0.064683355 -0.001475595 0.042876262 -0.04046963 -0.0008265179 0.11127672 -0.07177008
0.009799041 -0.06014723 0.053375304 0.05288684 -0.04778811 0.022263253 0.05040543 0.021205893
-0.016581016 -0.05295754 -0.001398649 -0.083944015 -0.04165575 0.014994428 -0.023786973 0.051229574
0.061635293 -0.052862477 -0.04523428 -0.0014204369 0.05349386 -0.0055402927 -0.06391077 0.03366309
0.0013025131 -0.04231204 0.013586678 -0.018404106 -0.025037931 -0.02405026 -0.08518691 -0.031211428
0.030162884 -0.0065872385 -0.01608901 0.02157058 -0.00097618107 0.11121459 -0.062321115 0.0032074011
-0.013367553 0.026076589 -0.06225416 -0.055654228 0.050615273 -0.051422603 -0.009516356 -0.046409704
-0.06521585 -0.012147252 0.0069837975 -0.057307687 0.01376576 0.04723641 -0.030939871 0.066833474
0.024098726 0.03143609 0.002696356 0.02008056 0.00900307 -0.0019270822 -0.028040739 -0.03512889
0.040366612 -0.009872513 0.05912026 0.049418703 0.03819942 -0.019296028 -0.0034953463 0.098607436
-0.023952106 0.1090456 -0.06115622 -0.03853615 0.01481644 -0.05571298 0.040976662 0.018687183
-0.0023929952 -0.014105193 0.0070633977 0.03855437 -0.044042375 -0.0068501285 -0.011238564 0.019075671
-0.09296468 -0.006684062 0.013197824 -0.0032450303 -0.00465039 0.007982632 0.0450285 0.026872044
0.0050384547 0.053800758 -0.057101768 0.04856539 0.04395086 0.07978657 -0.0010586318 -0.07757184
-0.042969123 0.059163887 0.11719485 0.05155331 0.07684306 0.036456294 -0.041833892 -0.017735705
-0.08295094 0.0005933867 0.013560985 -0.06570417 0.10431732 -0.051968355 0.040015 -0.0090820985
-0.0032027834 0.035333607 0.03627562 -0.010356613 0.0411566 0.004422734 0.027997825 0.06497423
0.0030340564 0.028234806 0.055729978 -0.068638965 -0.033469826 0.006531881 -0.03677559 -0.0039644125
0.061295025 -0.020621812 0.00019323328 0.036668207 -0.010357074 -0.0043822117 -0.029089984 0.046218596
-0.052044094 0.048514828 -0.06885428 -0.0094639 -0.053096376 -0.018106323 -0.026527146 0.07074232
-0.000999669 -0.056855712 -0.022301756 0.012754391 -0.041856963 0.007327494 0.025419682 -0.048462886
-0.067666695 0.0031936492 -0.06793342 -0.00020015854 0.001473158 -0.03693498 0.009322538 0.0076628067
-0.026839102 0.029199092 -0.06395078 -0.08589163 0.083099574 0.059219316 0.011940628 -0.026946593
0.033792738 -0.048199184 2.543116e-05 -0.09681762 0.110906824 0.039968103 -0.05373054 0.0074920203
00000000: cfb4 c0bc 0df3 4fbd 8ea9 b43b 2694 55bd
00000010: 79e1 a03d c9af d2bd 1407 0a3d bc14 22bd
00000020: 7833 8ebc 8219 39bd 837b a03d ed67 0abd
00000030: f98c 68bd 20f4 fcbc 1a44 6abd d18f 1ebd
00000040: 5122 01bd 2168 9d3d acef 9f3c ab7b 953d
00000050: 23da 333d e775 3abd 5881 513d 59f4 16ba
00000060: 4e37 8f3d 2ad8 29bc c052 3cbd f55c 61bd
00000070: 0980 69bd c63f e93b ff50 bf3b e2d3 0e3d
00000080: fb98 1e3d 88d7 33bd 35fb c33d 37d8 a03b
00000090: 3ca3 1bbc b24f ef3c bf32 7dbd 08bf 8ebd
000000a0: afc9 1cbc 263d 413b 0a16 b23d 2ddd 9fbc
000000b0: 1997 93bb 0207 d63d cecd 123c 4967 8f3c
000000c0: 2dd4 86bc 7160 37bd df65 10bc 6f8b 4c3d
000000d0: 4e73 8c3b a97c bf3b 8a00 49bd 9cec c73c
000000e0: 4e2f 973d 85e3 983d 84ff f33a 74bb 11bd
000000f0: c0af 963b caf0 40bd 8c6b 493c ea04 163d
00000100: 17bc adbc b578 843d c168 c1ba 059f 2f3d
00000110: 7cc3 25bd adaa 58ba 0de5 e33d 31fc 92bd
00000120: 288c 203c f15c 76bd 10a0 5a3d df9f 583d
00000130: 77bd 43bd 6d61 b63c ed75 4e3d fbb7 ad3c
00000140: e9d4 87bc 01ea 58bd df52 b7ba d7ea abbd
00000150: 389f 2abd 30ab 753c e6dc c2bc 1ad6 513d
00000160: 4a75 7c3d 5386 58bd 9547 39bd f42d baba
00000170: 611c 5b3d 588b b5bb a6e3 82bd 4fe2 093d
00000180: 16b9 aa3a 644f 2dbd a89a 5e3c 35c4 96bc
00000190: 591c cdbc 0d05 c5bc 7a76 aebd 1caf ffbc
000001a0: 2718 f73c c3d9 d7bb 19cd 83bc c9b4 b03c
000001b0: 67e6 7fba 7ac4 e33d 6d44 7fbd 4333 523b
000001c0: 9503 5bbc 929e d53c 38fe 7ebd b0f5 63bd
000001d0: f651 4f3d 82a0 52bd 7dea 1bbc 1a18 3ebd
000001e0: e38f 85bd 4505 47bc 57d8 e43b 77bb 6abd
000001f0: c889 613c f77a 413d 9d75 fdbc fddf 883d
00000200: b16a c53c 21c3 003d 59b5 303b fd7f a43c
00000210: 9d81 133c 2696 fcba b1b5 e5bc 50e3 0fbd
00000220: 7657 253d 52c0 21bc 1628 723d 446b 4a3d
00000230: ff76 1c3d b412 9ebc 2e12 65bb b2f2 c93d
00000240: 3537 c4bc 4d53 df3d f27e 7abd 15d8 1dbd
00000250: a7c0 723c 4b33 64bd 25d7 273d dd15 993c
00000260: ccd3 1cbb 7819 67bc 1374 e73b 30eb 1d3d
00000270: c765 34bd 0b77 e0bb f421 38bc 9544 9c3c
00000280: 4464 bebd fa05 dbbb b03b 583c 93aa 54bb
00000290: 4c62 98bb 96c9 023c ce6f 383d c322 dc3c
000002a0: 9f19 a53b 2f5e 5c3d 8be3 69bd 81ec 463d
000002b0: d105 343d 2467 a33d cac1 8aba fcdd 9ebd
000002c0: 6400 30bd d555 723d db03 f03d 9029 533d
000002d0: e55f 9d3d 3253 153d 045a 2bbd 784a 91bc
000002e0: 2fe2 a9bd 828d 1b3a e52e 5e3c e88f 86bd
000002f0: 52a4 d53d c5dc 54bd c5e6 233d 15cd 14bc
00000300: cae5 51bb f9b9 103d bf95 143d c9ae 29bc
00000310: d393 283d 95ec 903b b25b e53c 3611 853d
00000320: 05d7 463b ae4c e73c 1e45 643d 9692 8cbd
00000330: a817 09bd 6409 d63b 00a2 16bd e7e7 81bb
00000340: 7e10 7b3d 13ef a8bc aa9e 4a39 6731 163d
00000350: b8b0 29bc a898 8fbb 1e4e eebc b64f 3d3d
00000360: 302c 55bd 7cb7 463d 7903 8dbd 790e 1bbc
00000370: 967b 59bd b653 94bc 754f d9bc 59e1 903d
00000380: 5307 83ba 89e1 68bd 2cb2 b6bc cbf7 503c
00000390: 3572 2bbd 7a1b f03b f03c d03c 0581 46bd
000003a0: d694 8abd 8b4c 513b ad20 8bbd a6e1 51b9
000003b0: fb16 c13a 2249 17bd 8fbd 183c 4818 fb3b
000003c0: addd dbbc ef32 ef3c a0f8 82bd f3e7 afbd
000003d0: 1c30 aa3d f48f 723d a0a2 433c 1abf dcbc
000003e0: 416a 0a3d 826c 45bd 0055 d537 5148 c6bd
000003f0: 1e23 e33d 98b5 233d 8e14 5cbd 9f7f f53b

decoder.2.bias f4 [147]
-0.33030882 -0.7315764 0.8243378 -0.79468477 -0.040278252 -1.0829438 0.13348807 -0.75427103
0.48153666 -0.38139087 -0.66462076 0.8772739 -0.32729948 0.7081595 0.8894301 -0.7452979
0.069378346 -1.1536472 -0.0029420946 0.52120906 0.22718664 0.11294479 -0.492391 0.087451324
-0.7493061 -0.092823274 -1.1489544 -0.3713528 0.7238111 0.8524369 -0.75699574 -0.08896651
-1.1791468 -0.09920513 0.59446067 0.26393434 -0.766033 0.045222845 -1.1369576 0.57000285
-0.0007886304 -0.57631415 0.017415524 0.5663162 0.1730385 0.7168387 0.009131372 0.38188213
0.17625919 0.71773684 0.49879453 0.037121683 -0.57073295 0.22797427 0.10540747 -0.4038359
0.49398378 0.068542786 -0.59764946 0.24412788 -0.28417563 0.07634119 -0.97970223 -0.7692876
-0.046129037 -1.1209884 -0.7434112 0.11391395 -1.1279538 0.036735803 -0.6013858 0.2709615
0.4571695 -0.018325876 0.33378625 0.66377175 0.099975534 0.06560518 0.09777791 0.45200524
0.57806915 0.09677562 0.642977 0.5017378 -0.7532356 0.08612412 -1.1186212 0.008060142
0.5558526 0.22087258 0.6428309 -0.1099865 0.07243683 0.14237493 0.20101741 0.037753657
-0.61703134 -0.07682709 -1.1319708 0.19056156 -0.18548822 0.09240266 -0.009837907 -0.5388112
0.18947756 0.061814107 -0.59172565 0.16546714 0.19127397 0.39478728 -0.05781211 -0.02096052
0.056605086 -0.7809501 -0.38027063 0.65876096 0.8998827 0.022397881 -0.58761704 0.14910343
-0.124984086 -0.54648453 0.24651334 0.024786202 0.5278414 0.21327092 0.23527169 -0.34897062
-0.018101629 0.002492718 0.55983704 0.25158727 -0.002446987 -0.54907167 0.18571389 0.15445197
-0.61487263 0.42391682 0.12218125 0.50676256 0.05751921 0.053075667 -0.5147826 0.20075122
-0.770001 0.086832106 -1.1363165
00000000: 3d1e a9be 9748 3bbf cd07 533f 7670 4bbf
00000010: cffa 24bd e79d 8abf 19b1 083e e817 41bf
00000020: f98b f63e aa45 c3be 9624 2abf 0695 603f
00000030: cc93 a7be f149 353f b1b1 633f d8cb 3ebf
00000040: 3c16 8e3d b6aa 93bf 28d0 40bb f56d 053f
00000050: 9da3 683e 994f e73d ac1a fcbe ae19 b33d
00000060: 86d2 3fbf 211a bebd f010 93bf f421 bebe
00000070: af4b 393f 4e39 5a3f 79ca 41bf 1334 b6bd
00000080: 48ee 96bf 0f2c cbbd 932e 183f 6722 873e
00000090: bd1a 44bf 973b 393d d487 91bf b5eb 113f
000000a0: 17bc 4eba 5389 13bf 00ab 8e3c 19fa 103f
000000b0: 0131 313e be82 373f c09b 153c 0e86 c33e
000000c0: 4a7d 343e 9abd 373f ff61 ff3e e80c 183d
000000d0: 8e1b 12bf 1672 693e dfdf d73d 94c3 cebe
000000e0: 71eb fc3e 2960 8c3d 8eff 18bf a9fc 793e
000000f0: 787f 91be c558 9c3d c4cd 7abf 08f0 44bf
00000100: cdf1 3cbd 8c7c 8fbf 3250 3ebf b84b e93d
00000110: ca60 90bf 4878 163d 6bf4 19bf 77bb 8a3e
00000120: 1f12 ea3e 2620 96bc 08e6 aa3e f2ec 293f
00000130: f9bf cc3d 025c 863d c93f c83d 3b6d e73e
00000140: 57fc 133f 4c32 c63d 249a 243f e371 003f
00000150: 0cd4 40bf d861 b03d fb2e 8fbf b00e 043c
00000160: 5b4c 0e3f 6c2c 623e 9190 243f 9a40 e1bd
00000170: c359 943d bcca 113e 82d7 4d3e 94a3 1a3d
00000180: c4f5 1dbf 8557 9dbd 6be4 90bf 9222 433e
00000190: a0f0 3dbe 9b3d bd3d 2c2f 21bc 88ef 09bf
000001a0: 6806 423e ca30 7d3d 557b 17bf 3870 293e
000001b0: 53dd 433e 8f21 ca3e 64cc 6cbd 65b5 abbc
000001c0: bcda 673d 59ec 47bf d5b2 c2be 8fa4 283f
000001d0: b65e 663f c37b b73c 126e 16bf 92ae 183e
000001e0: a8f7 ffbd 69e6 0bbf fe6d 7c3e 6f0c cb3c
000001f0: 9d20 073f b163 5a3e 10eb 703e 47ac b2be
00000200: de49 94bc de5c 233b 7b51 0f3f 0cd0 803e
00000210: a15d 20bb f68f 0cbf c82b 3e3e a828 1e3e
00000220: 4b68 1dbf a00b d93e 2a3a fa3d 31bb 013f
00000230: 4399 6b3d df65 593d cbc8 03bf ba91 4d3e
00000240: c91e 45bf 08d5 b13d d272 91bf
