deepsets_model.pt (torch, 187604 bytes, 8 tensors)

phi.0.weight f4 [128, 2]
-0.058635917 0.22926942 -0.5890789 -0.23705232 0.41663748 0.0016871968 0.11248183 0.20139486
0.14764923 -0.24208796 -0.10513264 0.3720898 0.14583135 0.0107663395 -0.73027956 0.652828
0.38325986 0.8608587 -0.52111155 0.7074413 -0.14569715 0.37038073 -0.43539938 -0.6552726
-0.47079134 -0.4582776 0.23997633 -0.5968064 -0.1162146 -0.89534223 -0.14887194 0.22285695
0.2749897 1.2074845 -0.0017414386 0.008174654 0.3889223 0.6205422 -0.8060241 -1.3219094
-0.0913057 -0.56786346 -0.37007666 -0.11443168 -0.16516133 0.14319906 0.59804726 -0.51200694
-0.64934206 -0.03648249 -0.02770607 -0.040082615 0.34690616 -0.1401103 -0.39350057 -0.04397263
0.46453303 0.43374717 -0.082864575 -0.14809121 -0.020273706 -3.0228543 0.46416214 0.5012789
0.0021532583 -0.018796831 -0.24830183 -0.2834369 -0.118340805 -0.71463376 -0.5516903 0.18405512
-0.7054308 0.86907405 -0.013560127 0.0055796015 -0.0025325501 0.0011259264 -0.06635946 -0.96703815
0.5877634 0.85509324 0.002843486 0.012410027 0.53373706 0.66346353 0.39448783 0.7342195
-0.0004847209 -0.0026493343 0.020210473 -0.023746554 0.039714217 0.12516838 -0.46592554 -0.41358504
-0.0624625 -0.85265887 -0.94894665 -0.24576779 0.2897074 -0.3058303 -0.03182498 -0.6809818
0.78825724 -0.4584014 0.0021466333 -0.005576705 0.510498 -0.36171222 0.5154285 -0.20956615
-0.88635063 0.10338155 0.42662668 -0.43526736 0.5968547 -0.5726713 0.083868116 -0.05954315
0.060658935 -0.26152328 -0.36840352 -0.9694035 0.76529366 -0.39981803 0.11585983 0.3741476
-0.74910706 -0.3728425 -0.08742871 0.0117105 -0.0048694736 1.1031419 0.053116743 -0.06921543
-0.49834782 0.79759306 -0.23554638 0.008237612 0.4800376 -0.30889764 0.20312624 -0.2864828
-0.078979515 -0.18494512 -0.005995767 0.91375715 0.6473098 -0.74717724 0.4851769 -0.66897607
0.43858263 0.03468736 0.3037985 0.3774378 -0.09686054 0.70720655 -0.12701784 -0.50726545
0.2400323 -0.59637994 -0.72478426 0.19804838 -0.4397333 1.4760224 -0.40929168 0.22389515
0.01911694 0.060606115 -0.14445287 -0.112129375 0.2857938 -0.45133528 0.53891283 0.049769863
-0.11727149 -1.457582 -0.47414684 0.058561422 0.34484 -0.8119588 -0.06331864 -1.1616799
-0.011873875 0.12547737 0.0035713718 -0.01228912 -0.86902255 -0.7511773 -0.24679147 -1.6259975
0.5870587 -0.43083057 -0.36213252 0.7620357 -0.0048348135 -0.005008256 0.4390428 -0.7946796
0.038730726 0.15050273 0.69008154 0.30208278 -0.25933287 -0.02528639 -0.67772406 -0.40761968
0.15131071 0.24013549 0.11487963 0.4837545 0.29128215 0.81341493 0.5637319 0.3370359
-0.46329692 -0.5148569 -0.23000059 -0.8381322 0.42554566 -0.25133568 -0.0026524607 -0.013227461
0.6621725 -0.084699765 0.47563535 -0.5082799 0.014759957 -0.7406847 0.7886772 -0.06442007
0.14117585 0.16946162 0.31855184 0.58495456 0.021817338 0.8691717 0.107191846 -0.24874023
0.2791292 -0.7915246 -0.050002266 0.23125535 0.012762859 0.015851796 0.64189374 -0.08159489
0.5208269 0.78250563 0.15921886 -0.7494489 -0.7974255 -0.70094293 -0.34004128 0.15470758
00000000: 372c 70bd 9ac5 6a3e e0cd 16bf d8bd 72be
00000010: 8251 d53e ee24 dd3a e05c e63d 743a 4e3e
00000020: 5c31 173e e8e5 77be c84f d7bd 8e82 be3e
00000030: d054 153e 4d65 303c 9af3 3abf bc1f 273f
00000040: a33a c43e 3c61 5c3f 9167 05bf df1a 353f
00000050: a231 15be 8ba2 bd3e abec debe f2bf 27bf
00000060: 900b f1be 5da3 eabe 5bbc 753e 4ec8 18bf
00000070: ec01 eebd 2635 65bf e371 18be 9d34 643e
00000080: 73cb 8c3e da8e 9a3f fc40 e4ba fcee 053c
00000090: d320 c73e dbdb 1e3f 9857 4ebf 5434 a9bf
000000a0: 7cfe babd 805f 11bf b07a bdbe 285b eabd
000000b0: 0d20 29be c6a2 123e a019 193f e312 03bf
000000c0: 483b 26bf aa6e 15bd d7f7 e2bc ab2d 24bd
000000d0: af9d b13e 1379 0fbe e878 c9be a51c 34bd
000000e0: 46d7 ed3e 1c14 de3e e7b4 a9bd 39a5 17be
000000f0: 0b15 a6bc 7276 41c0 a9a6 ed3e d053 003f
00000100: ae1d 0d3b d0fb 99bc d642 7ebe a41e 91be
00000110: aa5c f2bd 3df2 36bf 933b 0dbf f278 3c3e
00000120: 1d97 34bf a37b 5e3f 4b2b 5ebc 17d5 b63b
00000130: 24f9 25bb d293 933a 78e7 87bd d08f 77bf
00000140: aa77 163f 64e7 5a3f c759 3a3b 6d53 4b3c
00000150: fea2 083f bfd8 293f 4ffa c93e cff5 3b3f
00000160: 2322 feb9 74a0 2dbb 6f90 a53c 2288 c2bc
00000170: 60ab 223d 242c 003e cb8d eebe 6bc1 d3be
00000180: aed8 7fbd da47 5abf 2bee 72bf 8daa 7bbe
00000190: 8754 943e ca95 9cbe e95a 02bd d354 2ebf
000001a0: 3acb 493f 97b3 eabe 88ae 0c3b cbbc b6bb
000001b0: ffaf 023f 5832 b9be 1ff3 033f 8298 56be
000001c0: e0e7 62bf b5b9 d33d d06e da3e 5ddb debe
000001d0: 78cb 183f 969a 12bf 0cc3 ab3d 85e3 73bd
000001e0: 8175 783d 61e6 85be 639f bcbe d42a 78bf
000001f0: 49ea 433f f3b4 ccbe eb47 ed3d 4690 bf3e
00000200: 7bc5 3fbf 36e5 bebe d30d b3bd 66dd 3f3c
00000210: 1b90 9fbb c133 8d3f f190 593d d2c0 8dbd
00000220: 7227 ffbe 0f2f 4c3f 1233 71be 0df7 063c
00000230: 7dc7 f53e d527 9ebe 5300 503e e0ad 92be
00000240: 03c0 a1bd 4162 3dbe 2478 c4bb fdeb 693f
00000250: 18b6 253f 0247 3fbf 1b69 f83e 0442 2bbf
00000260: e78d e03e 5514 0e3d 7a8b 9b3e 873f c13e
00000270: d25e c6bd 7d0b 353f f710 02be 26dc 01bf
00000280: 07cb 753e 5bac 18bf 768b 39bf 32cd 4a3e
00000290: b924 e1be 4dee bc3f ae8e d1be c544 653e
000002a0: 219b 9c3c 1e3e 783d 74eb 13be 16a4 e5bd
000002b0: 9153 923e 6b15 e7be 31f6 093f 7cdb 4b3d
000002c0: 092c f0bd 0c92 babf 60c3 f2be 1ade 6f3d
000002d0: de8e b03e 88dc 4fbf 34ad 81bd edb1 94bf
000002e0: a48a 42bc 247d 003e ad0d 6a3b 4e58 49bc
000002f0: 4378 5ebf 284d 40bf e7b6 7cbe b020 d0bf
00000300: 7b49 163f d395 dcbe 6f69 b9be c614 433f
00000310: 5b6d 9ebb 4c1c a4bb 38ca e03e 1f70 4bbf
00000320: 1ca4 1e3d 631d 1a3e 2fa9 303f 98aa 9a3e
00000330: 47c7 84be 6725 cfbc 537f 2dbf 87b3 d0be
00000340: 32f1 1a3e 14e6 753e 0346 eb3d abae f73e
00000350: ef22 953e f63b 503f bc50 103f f88f ac3e
00000360: 4135 edbe a9cd 03bf 4685 6bbe d58f 56bf
00000370: 1fe1 d93e 12af 80be e8d4 2dbb feb7 58bc
00000380: 2384 293f 1277 adbd 7a86 f33e a21e 02bf
00000390: bfd3 713c 839d 3dbf c0e6 493f abee 83bd
000003a0: 6790 103e 5987 2d3e 3a19 a33e 95bf 153f
000003b0: 46ba b23c 0982 5e3f 6687 db3d c2b5 7ebe
000003c0: 06ea 8e3e 5ba1 4abf 2dcf 4cbd 34ce 6c3e
000003d0: 501b 513c a0db 813c 2653 243f 391b a7bd
000003e0: e954 053f 4a52 483f 450a 233e e2db 3fbf
000003f0: 1424 4cbf ff70 33bf e419 aebe aa6b 1e3e

phi.0.bias f4 [128]
-0.29967728 -0.21774198 0.05647413 0.24556857 -0.3585918 -0.46844283 0.19405681 -0.5886663
-0.44987625 -0.8689531 0.33671433 0.38019422 -0.15890735 -0.25253603 0.16006176 -0.3414493
-0.32579958 -0.054467823 -0.27623993 -0.44916344 0.12917474 -0.0035514643 0.1253663 -0.713503
-0.4469353 -0.03635844 -0.26491228 -0.08198092 0.30661023 0.12493078 -0.053788453 -0.47399887
-0.05370608 0.03766597 0.18018138 -0.30784178 -0.6840277 -0.13180117 -0.029264633 0.11227973
-0.52288866 -0.052494597 0.36123443 -0.3545823 -0.14014529 -0.10065034 -0.5859854 -0.16081937
-0.4368094 -0.6507449 -0.18837918 0.16584456 -0.40901178 -0.03609702 -0.53552985 0.38009134
-0.59425914 0.28759986 -0.36799282 -0.02746425 -0.34646565 -0.25765443 -0.49692023 0.123526946
-0.4660343 -0.13365534 -0.16894491 0.11318892 -0.54513127 -0.008889052 -0.34344336 0.20850919
0.09228153 0.0018913851 -0.5625334 -0.52109414 0.08332542 -0.21843651 -0.103094205 0.17313136
0.4910371 -0.955138 -0.36407456 0.45214105 -0.15603425 0.1371549 0.3189065 -0.4145212
-0.25538558 0.51947427 -0.7079316 0.14394738 0.084415324 -0.111049145 -0.53510815 0.07994378
-0.742465 -0.2872193 -0.054686867 -0.46071464 -0.14326178 -0.71235794 -0.055032473 -0.31089956
0.16217394 -0.0679537 -0.26039812 -0.27477434 0.07794793 0.3071167 -0.40622914 -0.04089677
-0.54909897 -0.41158748 0.20388775 -0.682437 0.087969154 -0.27947634 -0.06511975 0.32347766
-0.2637927 -0.02421612 -0.09343443 -0.5793569 -0.50441563 -0.40318266 -1.0725992 -0.18801138
00000000: 4d6f 99be c1f7 5ebe 6b51 673d 5476 7b3e
00000010: 5899 b7be bdd7 efbe d4b6 463e d6b2 16bf
00000020: 2e56 e6be b673 5ebf d265 ac3e d1a8 c23e
00000030: 9cb8 22be 674c 81be 3be7 233e 71d2 aebe
00000040: 34cf a6be a719 5fbd 526f 8dbe c0f8 e5be
00000050: 6246 043e afbf 68bb 0660 003e 22a8 36bf
00000060: b4d4 e4be 96ec 14bd 95a2 87be 9de5 a7bd
00000070: 04fc 9c3e b5db ff3d 4851 5cbd fbaf f2be
00000080: e8fa 5bbd a247 1a3d 7881 383e 709d 9dbe
00000090: 701c 2fbf e3f6 06be 62bc efbc eaf2 e53d
000000a0: 08dc 05bf 9304 57bd b8f3 b83e d08b b5be
000000b0: 3f82 0fbe c421 cebd 2403 16bf d5ad 24be
000000c0: 7ba5 dfbe 3897 26bf 79e6 40be 28d3 293e
000000d0: fe69 d1be 78da 13bd 7c18 09bf 559b c23e
000000e0: 5e21 18bf 4a40 933e 8e69 bcbe b5fc e0bc
000000f0: f263 b1be 48eb 83be 546c febe b2fb fc3d
00000100: 0c9c eebe f2dc 08be e5ff 2cbe 98cf e73d
00000110: b98d 0bbf 63a3 11bc cfd7 afbe 6f83 553e
00000120: 19fe bc3d 5ae8 f73a 3002 10bf 6d66 05bf
00000130: 85a6 aa3d d2ad 5fbe 0e23 d3bd 5949 313e
00000140: 3769 fb3e ed83 74bf fb67 babe 087f e73e
00000150: 71c7 1fbe 5672 0c3e b647 a33e 1f3c d4be
00000160: e6c1 82be 44fc 043f 013b 35bf f166 133e
00000170: f1e1 ac3d bc6d e3bd d9fc 08bf 91b9 a33d
00000180: 3012 3ebf 680e 93be 56ff 5fbd cae2 ebbe
00000190: 37b3 12be 175d 36bf bb69 61bd 3a2e 9fbe
000001a0: ed10 263e 4f2b 8bbd e752 85be 39af 8cbe
000001b0: 2aa3 9f3d 663e 9d3e 44fd cfbe 5f83 27bd
000001c0: c091 0cbf 98bb d2be f3c7 503e 31b4 2ebf
000001d0: 2c29 b43d 8617 8fbe 815d 85bd dd9e a53e
000001e0: d60f 87be e260 c6bc 8d5a bfbd bc50 14bf
000001f0: 6221 01bf f56d cebe ee4a 89bf 0e86 40be

phi.2.weight f4 [128, 128]
-0.08554621 0.020569125 -0.0499491 -0.060176216 -0.075737305 -0.007551251 -0.05568325 -0.047681216
-0.08692723 0.085610405 -0.0032953152 -0.012817184 0.004297776 -0.043320917 0.020488126 -0.10270379
0.02991778 -0.07745395 -0.07428792 -0.1110255 -0.07753533 -0.020261765 0.039766755 -0.051727004
-0.102326736 0.03917398 -0.00029632615 -0.1218991 -0.04458497 -0.009361971 0.04914346 -0.025833694
-0.09039856 -0.06075974 -0.0668634 0.0067187436 -0.04101525 -0.088473774 -0.11384943 -0.053160742
0.016631726 -0.12309251 -0.0258327 0.032828987 0.019752285 -0.08386163 0.06672324 0.041183088
-0.061843526 0.04332684 -0.045169674 0.0054191607 -0.07899638 -0.028941717 0.060931686 -0.09694699
-0.04538105 -0.11816335 -0.05099288 0.020073913 0.023968538 -0.06515617 0.08150134 -0.079648584
-0.047123525 -0.11938702 -0.081288815 -0.09440071 -0.0017378634 0.001531005 -0.07680873 -0.052807324
0.012618635 -0.050075483 0.07808475 -0.07112348 -0.06273418 -0.025420252 -0.046296816 -0.09298885
-0.04593414 -0.045219187 -0.06521145 -0.0827216 0.04155889 -0.021613438 -0.061918292 0.07850387
-0.09358719 0.031068243 0.07953101 -0.042446632 0.035209775 -0.015033654 0.028797906 0.020824907
0.027580487 -0.100123994 -0.07833738 -0.012567283 0.040489968 -0.08817638 -0.0029993944 -0.087119095
0.011311447 -0.063414216 -0.016629882 -0.04734074 0.0053108805 0.009238337 0.0744207 0.025457019
0.085946925 0.0031606448 -0.10732153 0.08526781 -0.065235354 -0.071903504 -0.08280646 -0.0982054
-0.0048475442 -0.096677475 0.028039178 -0.06098964 0.007882209 0.0714977 0.028344596 -0.035718728
-0.058088046 -0.18788537 -0.02609827 -0.014985894 -0.07816566 -0.05983962 -0.026224332 -0.0017170912
-0.03400447 -0.014418437 0.031049442 0.03269516 0.13118248 -0.23652178 -0.021097591 0.041192606
0.003386257 0.034419704 0.056240443 0.019246547 -0.020878753 0.036407683 0.048183504 -0.0766968
-0.17616317 -0.02599533 0.07665485 0.19148874 0.014222107 -0.13622797 -0.1625973 0.06537504
0.010455116 0.14352693 0.022792825 0.13790816 -0.0008012629 -0.108755216 -0.07800824 -0.08092012
-0.08360639 -0.001768432 -0.027844612 0.008394496 0.00021982152 0.03461395 0.01594938 -0.2921202
-0.006483001 -0.13787791 0.004178099 0.045684252 0.08768529 -0.015793532 -0.035721216 0.013336793
-0.081282 0.020986652 -0.017655598 -0.021307364 -0.017918598 -0.09980422 -0.059438642 0.002650372
-0.21017057 -0.10937729 0.010686762 -0.095996544 -0.028449168 0.056247212 0.097638525 -0.054692943
-0.16871676 -0.06193107 -0.27512226 0.011542527 0.041084144 -0.08724842 -0.049714502 -0.09445801
-0.08108129 -0.078220084 -0.017654711 -0.08091527 -0.09628931 -0.14894047 0.04852951 -0.06624767
-0.023491737 0.0122901285 0.03460544 0.0006905579 -0.00077103614 0.021834195 -0.037219837 -0.1008327
-0.119576305 -0.02137848 -0.054242514 0.050908267 -0.0670001 -0.50202054 0.08306572 -0.14535771
-0.091872334 0.02957241 -0.088500835 -0.06310198 -0.08090253 -0.07513036 -0.028693188 -0.053457472
0.020275798 -0.023865385 -0.021784429 -0.082958065 -0.057740003 0.011470946 -0.024148254 0.04404959
-0.06276937 0.01810624 -0.01497797 -0.17578495 -0.14687984 0.054781254 3.1125448e-05 0.07575399
00000000: da32 afbd 9580 a83c 6d97 4cbd 567b 76bd
00000010: 291c 9bbd 7c70 f7bb 1f14 64bd 614d 43bd
00000020: e706 b2bd 8254 af3d 37f6 57bb 2bff 51bc
00000030: 5cd4 8c3b 4671 31bd b7d6 a73c 5d56 d2bd
00000040: 2216 f53c 2da0 9ebd 4424 98bd 5661 e3bd
00000050: d8ca 9ebd 00fc a5bc 77e2 223d b2df 53bd
00000060: ae90 d1bd e574 203d 395c 9bb9 3ca6 f9bd
00000070: bb9e 36bd f462 19bc a74a 493d 2fa1 d3bc
00000080: e122 b9bd 35df 78bd aeef 88bd e828 dc3b
00000090: 9bff 27bd bd31 b5bd e429 e9bd 14bf 59bd
000000a0: 423f 883c ed17 fcbd 199f d3bc b077 063d
000000b0: 8bcf a13c a5bf abbd 32a6 883d 99af 283d
000000c0: a34f 7dbd 7c77 313d d603 39bd 3793 b13b
000000d0: dbc8 a1bd 2e17 edbc 8193 793d 258c c6bd
000000e0: 7be1 39bd a0ff f1bd e9dd 50bd 0c72 a43c
000000f0: ab59 c43c 9970 85bd 2dea a63d cc1e a3bd
00000100: 9904 41bd 2f81 f4bd c07a a6bd 2955 c1bd
00000110: 05c9 e3ba 01ac c83a e54d 9dbd 7e4c 58bd
00000120: 64be 4e3c f31b 4dbd e6ea 9f3d 30a9 91bd
00000130: c77a 80bd 223e d0bc bba1 3dbd f070 bebd
00000140: 7025 3cbd c137 39bd 958d 85bd f169 a9bd
00000150: a839 2a3d aa0e b1bc 099e 7dbd a3c6 a03d
00000160: a4aa bfbd d482 fe3c 27e1 a23d 85dc 2dbd
00000170: 2038 103d b74f 76bc 96e9 eb3c ff98 aa3c
00000180: 79f0 e13c cf0d cdbd 596f a0bd 01e7 4dbc
00000190: cfd8 253d d195 b4bd 7d91 44bb 7f6b b2bd
000001a0: a653 393c 50df 81bd 643b 88bc 5de8 41bd
000001b0: e506 ae3b 655c 173c e169 983d 3d8b d03c
000001c0: f104 b03d d222 4f3b 64cb dbbd e4a0 ae3d
000001d0: 1d9a 85bd 2542 93bd 6f96 a9bd ea1f c9bd
000001e0: 26d8 9ebb d7fe c5bd 6bb2 e53c 46d0 79bd
000001f0: 6124 013c 636d 923d ed32 e83c cd4d 12bd
00000200: bbed 6dbd 0665 40be 0acc d5bc 6587 75bc
00000210: 5115 a0bd 641a 75bd 69d4 d6bc 0510 e1ba
00000220: 4548 0bbd 4f3b 6cbc 665b fe3c 5ceb 053d
00000230: b354 063e c432 72be dbd4 acbc 94b9 283d
00000240: f7eb 5d3b adfb 0c3d 615c 663d efaa 9d3c
00000250: eb09 abbc 3920 153d 115c 453d 3613 9dbd
00000260: 1e64 34be 29f4 d4bc 38fd 9c3d a015 443e
00000270: d703 693c 587f 0bbe e87f 26be 59e3 853d
00000280: ef4b 2b3c b9f8 123e 05b8 ba3c cc37 0d3e
00000290: d80b 52ba 0ebb debd c9c2 9fbd 73b9 a5bd
000002a0: d439 abbd bbca e7ba 621a e4bc 1189 093c
000002b0: e47f 6639 5bc7 0d3d 46a8 823c c790 95be
000002c0: 5b6f d4bb de2f 0dbe 6fe8 883b 691f 3b3d
000002d0: 5894 b33d 7061 81bc 6950 12bd 9082 5a3c
000002e0: 2d77 a6bd 33ec ab3c 79a2 90bc c88c aebc
000002f0: 06ca 92bc 2866 ccbd ef75 73bd ddb1 2d3b
00000300: f436 57be 3301 e0bd 8717 2f3c d699 c4bd
00000310: 3b0e e9bc 7a63 663d b5f6 c73d b505 60bd
00000320: 16c4 2cbe 6fab 7dbd d3dc 8cbe de1c 3d3c
00000330: d947 283d 4daf b2bd 6fa1 4bbd 3373 c1bd
00000340: f30d a6bd da31 a0bd 9da0 90bc e8b6 a5bd
00000350: 5433 c5bd da83 18be e1c6 463d dcac 87bd
00000360: be71 c0bc 895c 493c 6fbe 0d3d 8e06 353a
00000370: 5c1f 4aba a0dd b23c d473 18bd 6081 cebd
00000380: 6ce4 f4bd ec21 afbc 662d 5ebd 3085 503d
00000390: 5937 89bd 6b84 00bf 5c1e aa3d a7d8 14be
000003a0: 9027 bcbd d741 f23c ed3f b5bd 9c3b 81bd
000003b0: 3ab0 a5bd f2dd 99bd fa0d ebbc 39f6 5abd
000003c0: 6e19 a63c 5781 c3bc 4275 b2bc ebe5 a9bd
000003d0: c880 6cbd a2f0 3b3c 8fd2 c5bc 586d 343d
000003e0: 3a8d 80bd 8a53 943c 2966 75bc f800 34be
000003f0: ab67 16be 4f62 603d b28c 0238 e824 9b3d

phi.2.bias f4 [128]
-0.041760437 0.055153526 -0.0019628385 -0.091889076 0.043073565 0.03065756 -0.07734053 -0.077342235
0.0015313932 0.12762693 -0.05649963 0.019465245 0.04039214 -0.112641074 -0.007884049 0.033156916
-0.1101826 -0.08711631 0.016356792 -0.008023187 -0.0585976 -0.19254002 -0.013508155 0.05813169
0.09829336 -0.04986462 0.009987794 0.1484148 -0.13467278 0.05442479 0.044291474 -0.003920915
-0.19091864 0.003220127 -0.1800768 0.0692175 -0.07005212 0.04610967 0.03627394 -0.07807757
-0.06553029 -0.1406195 -0.17904167 -0.0381563 -0.04566828 0.12153798 0.02933522 0.04208831
-0.019938681 -0.11503749 0.047519665 -0.06214343 0.052246705 0.021127148 -0.11820628 0.109716535
0.040908925 -0.021156056 -0.01590875 0.0077869245 -0.013323672 0.04152237 -0.024337431 -0.106722556
-0.06183326 -0.010331284 0.04717981 0.044606272 -0.09320374 -0.041855022 -0.0826754 0.030319704
0.050163418 0.06330702 -0.0649949 0.05201215 -0.108346246 -0.10803967 -0.13297181 -0.031839125
-0.0432747 -0.1120767 -0.07402764 0.005276684 -0.29974273 -0.0902528 0.022713086 0.034024455
0.0065036085 -0.044296708 -0.034185585 -0.120951995 0.022079404 -0.013496371 -0.0036640111 -0.049031414
-0.02678717 0.047351126 0.07175767 0.031995047 0.033718336 0.05519356 0.03611326 0.00010444925
-0.06883774 0.035147477 -0.081928335 0.13568586 -0.07608717 -0.09907282 -0.045421626 -0.0781309
-0.03615418 0.08962778 -0.00849461 -0.07706899 0.026106045 0.063341394 -0.073965386 0.0031407278
-0.002366401 -0.02144134 -0.12336428 0.002619391 -0.02990523 -0.011602574 -0.03255628 -0.048100777
00000000: fe0c 2bbd aae8 613d f7a2 00bb 5730 bcbd
00000010: e86d 303d 9025 fb3c b664 9ebd 9b65 9ebd
00000020: 07b9 c83a a2b0 023e 286c 67bd 9475 9f3c
00000030: 3b72 253d 5db0 e6bd 192c 01bc 8ccf 073d
00000040: 6aa7 e1bd 096a b2bd aefe 853c af73 03bc
00000050: 0904 70bd 3629 45be 4f51 5dbc 7f1b 6e3d
00000060: 074e c93d d83e 4cbd d8a3 233c 0dfa 173e
00000070: a9e7 09be 87ec 5e3d fa6a 353d 057b 80bb
00000080: 2d80 43be c408 533b 0d66 38be e8c1 8d3d
00000090: 7c77 8fbd 7edd 3c3d fc93 143d 22e7 9fbd
000000a0: bf34 86bd 8ffe 0fbe b356 37be c849 1cbd
000000b0: aa0e 3bbd e8e8 f83d 6a50 f03c cb64 2c3d
000000c0: 7256 a3bc c798 ebbd fba3 423d 1c8a 7ebd
000000d0: a400 563d d712 ad3c 2216 f2bd 10b3 e03d
000000e0: 1e90 273d 774f adbc 1153 82bc 7529 ff3b
000000f0: 884b 5abc 5c13 2a3d 4b5f c7bc 5b91 dabd
00000100: df44 7dbd 8c44 29bc 9e3f 413d 11b5 363d
00000110: 9ae1 bebd 2c70 2bbd b851 a9bd 0761 f83c
00000120: 2878 4d3d 1ca7 813d 0c1c 85bd b10a 553d
00000130: a3e4 ddbd e743 ddbd c329 08be be69 02bd
00000140: d040 31bd 7888 e5bd ce9b 97bd 09e8 ac3b
00000150: e177 99be 76d6 b8bd cb10 ba3c 3a5d 0b3d
00000160: 391c d53b 7770 35bd 2f06 0cbd aeb5 f7bd
00000170: dedf b43c e21f 5dbc e81f 70bb 2ad5 48bd
00000180: c470 dbbc 41f3 413d aff5 923d 3d0d 033d
00000190: 3d1c 0a3d a412 623d 7feb 133d c40b db38
000001a0: cdfa 8cbd cdf6 0f3d 0bca a7bd 3cf1 0a3e
000001b0: 97d3 9bbd b1e6 cabd 070c 3abd 1803 a0bd
000001c0: 6816 14bd c58e b73d fa2c 0bbc 59d6 9dbd
000001d0: 58dc d53c 22b9 813d 2a7b 97bd abd4 4d3b
000001e0: 9f15 1bbb c0a5 afbc 69a6 fcbd 17aa 2b3b
000001f0: d0fb f4bc b918 3ebc bc59 05bd 5205 45bd

rho.0.weight f4 [128, 128]
-0.05757182 0.07437519 0.08476875 -0.06810652 0.038199894 -0.08313165 -0.03722201 -0.03590789
-0.055105012 -0.013734004 0.04837826 -0.028574165 -0.099280804 0.053671084 -0.093815416 0.0036071432
-0.06502356 -0.10098897 -0.024263019 -0.015747085 -0.015311164 -0.06960147 -0.007307202 -0.027196726
-0.04148205 -0.03035465 -0.09642276 -0.068771906 0.0743453 -0.0015855221 0.046943545 0.015588691
0.028311651 0.01726325 0.018685494 -0.04857481 -0.039439335 -0.11927424 -0.025591418 0.064862445
0.032172102 0.06469607 0.039437436 0.073157236 0.039759934 -0.0035295365 -0.037569713 -0.08535541
-0.08597587 -0.036985368 0.037373994 -0.07535625 -0.042983696 0.0031904685 -0.09869303 -0.021142932
-0.00463293 -0.11940236 -0.008117997 -0.0035881407 0.077323526 -0.041666385 -0.08256596 -0.071086034
0.035226945 -0.05084503 0.03308311 0.06674308 0.03448004 -0.04864082 -0.010461033 -0.043053746
-0.058180794 -0.019619264 0.074109666 0.035927307 0.0736836 0.07779344 0.082249105 0.0823324
-0.049224444 -0.106610745 -0.03323668 -0.042210463 0.046834666 -0.049150962 -0.08792075 -0.038248986
-0.086111374 0.05831542 -0.049384348 -0.021023996 0.077555805 -0.12206959 -0.07649246 0.075753145
-0.06934974 0.052339025 0.015349839 -0.08226776 0.00027173356 -0.017154925 -0.08497949 0.034901734
0.077732764 -0.09161796 0.083439976 0.04773723 -0.016486006 -0.0035375627 0.021804497 0.01871551
-0.05653222 0.005989867 -0.078420095 0.028014164 -0.07370841 -0.11445247 -0.007187615 0.05429905
0.0010312052 -0.008756874 -0.07556371 0.058689293 -0.0971919 0.0032852413 0.06534422 0.03507781
-0.02977574 0.01385937 -0.04388636 -0.061806817 -0.020177413 -0.068488814 -0.04609923 0.031163681
0.08107986 -0.046694778 -0.091100104 0.071742885 -0.051585924 0.010019317 -0.005868212 -0.01889698
0.051927693 0.01285209 0.0725946 0.086796045 0.059951976 0.025529314 0.07290225 -0.023028972
0.038331922 0.04741338 -0.14636429 -0.1513882 0.027836759 0.005120157 0.020755311 0.02164303
-0.0035388952 0.021083675 -0.013637842 -0.076591246 0.0070159463 0.021504741 -0.08610773 0.07997757
-0.0429508 0.055207126 -0.069353566 -0.07528853 -0.086682945 -0.07253328 -0.074649125 -0.041130517
-0.07024528 0.0043485113 0.050899833 0.041970763 0.045488823 -0.048393425 0.045282744 0.03756729
-0.064299524 0.0031330923 0.018632554 -0.03396988 -0.029124662 0.023203596 0.018178372 -0.05222331
0.016544724 -0.010824981 0.022740804 0.073462345 0.00451659 0.041184552 -0.038618717 0.05694618
-0.058507062 -0.058476396 -0.04365756 -0.08229575 0.017656235 -0.03602001 -0.08200884 0.08566195
0.03204746 0.016922722 -0.039905503 -0.015385663 0.05702327 -0.05501264 0.045359015 -0.04325705
-0.07756405 -0.0113523975 0.012413171 -0.020829882 -0.0053673326 0.037663773 -0.03521758 0.058516197
0.039500047 0.068300635 -0.10977472 0.005752554 -0.020445066 0.04333785 -0.07393812 0.02706603
-0.06384514 -0.06454242 0.076993115 -0.0036806592 -0.014664683 -0.06672108 -0.05358537 -0.070403464
-0.03711468 0.010510188 -0.06924817 -0.030990984 0.018377123 -0.07160689 0.05113536 -0.025488265
-0.009554007 -0.033601586 0.066906214 -0.0824432 0.0620561 -0.01904044 0.06755629 -0.012050166
00000000: 6ed0 6bbd 0552 983d 3d9b ad3d 6e7b 8bbd
00000010: 7e77 1c3d ed40 aabd 1b76 18bd 2714 13bd
00000020: cbb5 61bd 9704 61bc 4828 463d 5e14 eabc
00000030: bc53 cbbd 36d6 5b3d 4c22 c0bd d265 6c3b
00000040: 122b 85bd 4ed3 cebd 3dc3 c6bc 0800 81bc
00000050: addb 7abc 378b 8ebd 4171 efbb abcb debc
00000060: 15e9 29bd 51aa f8bc 4c79 c5bd 49d8 8cbd
00000070: 5942 983d 4bd1 cfba e047 403d b667 7f3c
00000080: d6ed e73c a96b 8d3c 5212 993c 61f6 46bd
00000090: 248b 21bd 0e46 f4bd 18a5 d1bc 9ad6 843d
000000a0: e5c6 033d 607f 843d 2689 213d 76d3 953d
000000b0: 50db 223d cc4f 67bb b3e2 19bd d1ce aebd
000000c0: 1e14 b0bd f87d 17bd 7915 193d 6154 9abd
000000d0: ac0f 30bd 2e17 513b 921f cabd f133 adbc
000000e0: d5cf 97bb 3989 f4bd 5901 05bc 0327 6bbb
000000f0: cc5b 9e3d 5faa 2abd 5818 a9bd 8e95 91bd
00000100: 214a 103d e142 50bd 2882 073d 99b0 883d
00000110: f13a 0d3d 993b 47bd c164 2bbc 2059 30bd
00000120: fc4e 6ebd 94b8 a0bc cfc6 973d 8328 133d
00000130: 6de7 963d 2b52 9f3d 3872 a83d e49d a83d
00000140: 929f 49bd bc56 dabd 2f23 08bd e1e4 2cbd
00000150: b5d5 3f3d 8552 49bd cb0f b4bd f8aa 1cbd
00000160: 295b b0bd 26dc 6e3d 3e47 4abd 843a acbc
00000170: 94d5 9e3d 9fff f9bd 14a8 9cbd 7724 9b3d
00000180: 3d07 8ebd 7261 563d e47d 7b3c 007c a8bd
00000190: 7677 8e39 7c88 8cbc ba09 aebd 1ff5 0e3d
000001a0: 5b32 9f3d 32a2 bbbd 94e2 aa3d 1d88 433d
000001b0: a90d 87bc 74d6 67bb 589f b23c 4551 993c
000001c0: 548e 67bd a546 c43b b79a a0bd f67d e53c
000001d0: 6ff4 96bd 0e66 eabd 1686 ebbb ae68 5e3d
000001e0: 8129 873a fe78 0fbc 25c1 9abd 2f64 703d
000001f0: 8c0c c7bd 344d 573b 31d3 853d c0ad 0f3d
00000200: 41ec f3bc 6912 633c 2fc2 33bd 2529 7dbd
00000210: 1a4b a5bc dd43 8cbd 8cd2 3cbd fa4a ff3c
00000220: 330d a63d 0643 3fbd b192 babd efed 923d
00000230: c34b 53bd 1028 243c 214a c0bb d7cd 9abc
00000240: 22b2 543d 9391 523c 7aac 943d 20c2 b13d
00000250: 3490 753d da22 d13c c64d 953d 41a7 bcbc
00000260: ef01 1d3d 8834 423d 85e0 15be 8205 1bbe
00000270: ea09 e43c fdc6 a73b 0b07 aa3c b94c b13c
00000280: cfec 67bb acb7 ac3c 4171 5fbc dfdb 9cbd
00000290: 06e6 e53b b62a b03c 4059 b0bd 48cb a33d
000002a0: 2eed 2fbd de20 623d 3e09 8ebd df30 9abd
000002b0: d486 b1bd 548c 94bd a4e1 98bd 7978 28bd
000002c0: c2dc 8fbd f57d 8e3b 587c 503d 89e9 2b3d
000002d0: 7d52 3a3d 2f38 46bd 667a 393d 29e0 193d
000002e0: 78af 83bd 9154 4d3b 4ca3 983c 0024 0bbd
000002f0: d896 eebc 7815 be3c cfea 943c 1ce8 55bd
00000300: cd88 873c 435b 31bc ec4a ba3c 6d73 963d
00000310: e7ff 933b 22b1 283d a92e 1ebd 6640 693d
00000320: 1aa5 6fbd f284 6fbd 45d2 32bd ad8a a8bd
00000330: cfa3 903c b889 13bd 40f4 a7bd 886f af3d
00000340: 3344 033d 85a1 8a3c f473 23bd 2614 7cbc
00000350: 3b91 693d ef54 61bd 60ca 393d 4e2e 31bd
00000360: e7d9 9ebd 68ff 39bc 9d60 4b3c 6ea3 aabc
00000370: 73e0 afbb 5445 1a3d 4f40 10bd aeae 6f3d
00000380: cdca 213d 34e1 8b3d 92d1 e0bd ec7f bc3b
00000390: 697c a7bc 0883 313d de6c 97bd 94b9 dd3c
000003a0: 3ec1 82bd d12e 84bd 91ae 9d3d 3737 71bb
000003b0: 2344 70bc 10a5 88bd 557c 5bbd b12f 90bd
000003c0: 9005 18bd ec32 2c3c fcd1 8dbd cee0 fdbc
000003d0: 9f8b 963c a2a6 92bd 5073 513d c4cc d0bc
000003e0: 6988 1cbc d1a1 09bd 2006 893d fbd7 a8bd
000003f0: 8a2e 7e3d b2fa 9bbc f45a 8a3d 0f6e 45bc

rho.0.bias f4 [128]
-0.093156576 0.020962546 -0.012233903 -0.009066981 -0.03010734 -0.286268 0.022252848 -0.08659543
0.3260818 -0.085194886 -0.04672864 0.6910945 -0.08124381 0.021943053 0.007824479 -0.030296056
-0.05435968 -0.10755376 -0.010056147 -0.005633804 0.026597047 -0.042829998 -0.19700424 -0.05456189
-0.04247369 -0.02351799 0.021973759 -0.112295955 -0.041390993 0.31640938 -0.06789365 -0.041453265
-0.07054334 0.73933315 -0.059775624 -0.101432115 -0.13840847 -0.041875076 0.0024056637 -0.06973934
0.14143413 -0.058548193 -0.08319288 -0.09690337 -0.0845818 -0.10024338 -0.11196663 -0.05228296
0.56582344 -0.110824615 0.20591988 0.013369203 -0.02582505 -0.10120462 -0.10507448 -0.022205584
0.2897238 0.290432 -0.088340126 -0.09019758 -0.05954712 -0.044668097 0.27609897 -0.064955644
-0.025251934 -0.11202408 -0.10118798 0.23306863 -0.10848551 -0.11571276 0.31929195 -0.040972687
-0.06910972 -0.092942424 -0.0762412 0.046024717 -1.1022625 -0.013455731 -0.04631745 0.11381853
-0.0691208 0.46531376 0.22674751 0.013824441 -0.39612275 0.011892393 -0.04953698 -0.06725681
-0.1487215 -0.0905526 0.5097415 0.21823251 -0.028098302 -0.18295236 -0.10640313 -0.060164653
-0.07176481 -0.060419764 0.17781897 -0.08311446 0.010408327 0.3086627 -0.14478898 -0.06480515
-0.6303292 0.034939807 0.6019199 -0.13739718 -0.104674116 0.009842098 -0.09903404 -0.0098286895
0.31613237 0.0071639735 -0.060306296 -0.04790164 -0.06910058 0.41183338 0.017353192 -0.007783353
0.6570104 -0.060216326 -0.01981602 0.8870937 -0.03996796 -0.71484464 0.44284475 0.25558916
00000000: e0c8 bebd a5b9 ab3c b570 48bc ad8d 14bc
00000010: aba3 f6bc b891 92be 9b4b b63c f258 b1bd
00000020: 32f4 a63e a87a aebd 8866 3fbd 92eb 303f
00000030: 2863 a6bd ebc1 b33c 3e32 003c 6f2f f8bc
00000040: 41a8 5ebd 2545 dcbd 8ac2 24bc c69b b8bb
00000050: 0de2 d93c 826e 2fbd 7bbb 49be 4a7c 5fbd
00000060: e4f8 2dbd cda8 c0bc 5002 b43c 6cfb e5bd
00000070: 9a89 29bd 6900 a23e d30b 8bbd e6ca 29bd
00000080: 0779 90bd f044 3d3f 49d7 74bd a4bb cfbd
00000090: f3ba 0dbe 3385 2bbd 57a8 1d3b 80d3 8ebd
000000a0: 1cd4 103e 3bd0 6fbd 0761 aabd 4675 c6bd
000000b0: 3939 adbd 674c cdbd c34e e5bd a826 56bd
000000c0: ced9 103f 04f8 e2bd a9dc 523e 800a 5b3c
000000d0: 0e8f d3bc 5e44 cfbd 4a31 d7bd 7ce8 b5bc
000000e0: ae56 943e 81b3 943e abeb b4bd 82b9 b8bd
000000f0: aee7 73bd e5f5 36bd d85c 8d3e 7707 85bd
00000100: 25dd cebc e16c e5bd a53b cfbd 8ba9 6e3e
00000110: a72d debd d0fa ecbd 3c7a a33e fad2 27bd
00000120: 6689 8dbd 9958 bebd 5924 9cbd 6a84 3c3d
00000130: f016 8dbf 6d75 5cbc 5eb7 3dbd b119 e93d
00000140: 358f 8dbd 9b3d ee3e 8030 683e e87f 623c
00000150: 9ad0 cabe 50d8 423c 4ae7 4abd f0bd 89bd
00000160: 734a 18be a473 b9bd 6b7e 023f 5878 5f3e
00000170: 692e e6bc dd57 3bbe e2e9 d9bd 366f 76bd
00000180: 6ef9 92bd b77a 77bd 2d16 363e ea37 aabd
00000190: b087 2a3c 0a09 9e3e 9043 14be 90b8 84bd
000001a0: 415d 21bf 0b1d 0f3d 6c17 1a3f d9b1 0cbe
000001b0: 625f d6bd c040 213c 5cd2 cabd 8308 21bc
000001c0: 1adc a13e c4bf ea3b bc03 77bd 8334 44bd
000001d0: 9b84 8dbd d3db d23e 4828 8e3c 7f0b ffbb
000001e0: d531 283f 65a5 76bd 3555 a2bc 9318 633f
000001f0: 72b5 23bd 0f00 37bf 8cbc e23e 95dc 823e

rho.2.weight f4 [98, 128]
-0.022574987 0.05061724 0.03901328 -0.040457122 0.12946516 0.060547967 -0.04425124 0.00061343703
0.22216569 0.039025906 -0.027803317 0.036765385 0.035592318 0.004825385 0.014447492 0.010883488
-0.0728191 -0.09816004 -0.08562939 0.035335418 0.0011119285 -0.004895189 -0.0037575185 -0.043204464
0.041275498 0.12887764 0.111316115 0.028964445 0.028235653 0.0745824 0.023135655 -0.025952721
0.04703557 0.01666605 0.036832713 -0.09585062 0.021814674 -0.04053258 -0.092360534 -0.0484134
0.14209713 0.013926731 -0.021886121 -0.044509083 -0.10962314 -0.10551654 -0.004702821 0.0017050387
-0.044292714 -0.032450948 0.040190082 -0.019425534 -0.015863536 -0.06971457 0.12636304 0.031187072
-0.09570041 -0.01595867 -0.032769777 0.012593902 0.056954145 0.09257611 0.025995672 -0.08096347
-0.06802703 0.06781208 0.037303854 -0.02751542 0.07434751 -0.066137776 -0.02755608 -0.048385676
-0.0018456152 -0.026779013 0.032008227 -0.10188953 -0.019363163 0.032104656 -0.045012858 0.0015209246
-0.03691917 0.12131221 -0.06543803 0.007787243 0.005774374 -0.09186006 0.021705111 0.013242725
0.033877127 -0.025146754 0.01526019 0.12811764 0.062209114 -0.007620758 -0.026902506 0.052600298
-0.052168835 0.00739313 0.100944884 -0.017795363 -0.096172206 -0.107618175 0.03449462 0.01990013
-0.035013743 -0.013071357 0.016476661 0.07097819 -0.08387948 0.009658266 0.06807607 0.019937426
-0.021826018 0.025905464 -0.04349057 -0.063037425 -0.037064247 -0.06541787 -0.0068018143 0.072649226
-0.03716088 0.021391938 -0.05849814 0.0033023714 -0.006111427 -0.064105004 0.041657757 0.016889667
-0.033851266 0.014420754 -0.071438275 0.050077643 -0.019475091 0.03516295 0.05861908 0.10367694
-0.099547565 0.007516852 -0.0051366934 0.12771186 -0.066347234 0.0008589898 0.054112855 0.03659606
0.00014190844 0.013336586 -0.037230782 -0.06113584 0.078579865 -0.05577448 0.00052633195 0.111222215
0.0096705295 -0.095677905 0.020199945 -0.04840689 -0.0024886637 -0.052863833 -0.010202905 0.07677679
0.05074383 -0.061782297 -0.02688872 0.06491248 -0.018206809 -0.0530688 0.0028242161 0.077049755
-0.14321195 0.043064795 0.0037178441 0.09453728 0.062473748 0.014313075 0.021941394 0.020141417
0.06161108 -0.11314183 0.46652344 0.08776388 0.017712085 0.066982985 -0.043782093 0.020285357
-0.10693269 0.16678189 -0.060100935 -0.00047897728 -0.064963184 0.008286499 0.058413994 -0.07527777
-0.042956628 0.10291075 -0.010501679 0.02838438 0.06338403 -0.060659766 -0.2445644 0.038820814
0.057605997 0.090108365 0.0037961777 0.04892057 -0.016362973 0.028900718 0.047256403 -0.050631903
-0.0531808 -0.024527885 -0.05524638 -0.003214491 -0.041012112 -0.08463182 -0.060954455 -0.03485416
0.00079220056 0.011486626 0.11208752 0.061873645 -0.0825755 -0.013795209 0.0802506 -0.039426584
-0.009321167 -0.007993543 0.17441414 0.003049639 0.0012660122 0.09273129 0.18142252 -0.024737129
-0.10374373 0.026734643 -0.010407299 -0.014590403 0.109635234 -0.049530648 0.023995228 0.050734665
0.032248814 0.09217947 0.05492623 0.0020069135 0.0013021808 0.2649808 0.08122463 0.14157762
-0.07052474 -0.009564397 0.03865597 0.05665451 -0.0323684 -0.06908221 -0.063770816 -0.0035161932
00000000: 2eef b8bc 0654 4f3d 64cc 1f3d 5eb6 25bd
00000010: 8492 043e 2501 783d ca40 35bd 10cf 203a
00000020: 677f 633e a1d9 1f3d c8c3 e3bc 4d97 163d
00000030: 40c9 113d 431e 9e3b 2cb5 6c3c a850 323c
00000040: 2e22 95bd 2208 c9bd 765e afbd dfbb 103d
00000050: 21be 913a d267 a0bb b340 76bb 2af7 30bd
00000060: 7f10 293d 80f8 033e b4f9 e33d d846 ed3c
00000070: 754e e73c a8be 983d fc86 bd3c cd9a d4bc
00000080: 5fa8 403d 3d87 883c e6dd 163d 544d c4bd
00000090: b0b4 b23c 7e05 26bd 8527 bdbd 214d 46bd
000000a0: e981 113e f22c 643c 864a b3bc 284f 36bd
000000b0: 1982 e0bd 0e19 d8bd 1f1a 9abb 9b7b df3a
000000c0: 476c 35bd 49eb 04bd 5b9e 243d 4c22 9fbc
000000d0: 3ff4 81bc 83c6 8ebd 5065 013e 087c ff3c
000000e0: 94fe c3bd c2bb 82bc 9a39 06bd a756 4e3c
000000f0: c048 693d 8b98 bd3d e0f4 d43c 2dd0 a5bd
00000100: c151 8bbd 0fe1 8a3d edcb 183d 0568 e1bc
00000110: 8243 983d 3e73 87bd 4abd e1bc 0f30 46bd
00000120: 92e8 f1ba a95f dbbc 0f1b 033d 75ab d0bd
00000130: 7f9f 9ebc 2c80 033d 675f 38bd c359 c73a
00000140: 8e38 17bd 8972 f83d 6004 86bd 212c ff3b
00000150: f636 bd3b 2121 bcbd ebce b13c 04f8 583c
00000160: bec2 0a3d 9100 cebc e005 7a3c 4531 033e
00000170: fcce 7e3d 8db7 f9bb a562 dcbc 6973 573d
00000180: fdae 55bd 1242 f23b 31bc ce3d 95c7 91bc
00000190: eff5 c4bd eb66 dcbd 3b4a 0d3d 9905 a33c
000001a0: 926a 0fbd 3f29 56bc 10fa 863c 035d 913d
000001b0: 01c9 abbd b43d 1e3c 776b 8b3d d053 a33c
000001c0: 7acc b2bc b237 d43c 2b23 32bd c419 81bd
000001d0: aed0 17bd cef9 85bd c1e1 debb 1ec9 943d
000001e0: 0236 18bd 253e af3c bf9b 6fbd 996c 583b
000001f0: 5e42 c8bb 7c49 83bd 53a1 2a3d 335c 8a3c
00000200: a0a7 0abd 0745 6c3c 3b4e 92bd 371e 4d3d
00000210: 3a8a 9fbc 0707 103d 8f1a 703d 9354 d43d
00000220: 98df cbbd ed4f f63b b551 a8bb e6c6 023e
00000230: 0fe1 87bd d42d 613a 71a5 5d3d c0e5 153d
00000240: 42cd 1439 b281 5a3c 4e7f 18bd 9369 7abd
00000250: 7bee a03d c873 64bd 8af9 093a 79c8 e33d
00000260: 2471 1e3c c7f2 c3bd 5b7a a53c 4e46 46bd
00000270: d918 23bb bf87 58bd 162a 27bc 263d 9d3d
00000280: c3d8 4f3d 6f0f 7dbd bc45 dcbc d6f0 843d
00000290: 7226 95bc ac5e 59bd 7c16 393b 43cc 9d3d
000002a0: 27a6 12be b664 303d 13a7 733b c39c c13d
000002b0: 79e4 7f3d 6381 6a3c 70be b33c 9dff a43c
000002c0: e65b 7c3d e7b6 e7bd 29dc ee3e 8dbd b33d
000002d0: ef18 913c 602e 893d da54 33bd 7a2d a63c
000002e0: 87ff dabd dfc8 2a3e 662c 76bd 3e1f fbb9
000002f0: 6b0b 85bd 19c4 073c 8343 6f3d 3b2b 9abd
00000300: 4af3 2fbd dfc2 d23d 3c0f 2cbc 5c86 e83c
00000310: 7ccf 813d 6076 78bd 176f 7abe 9302 1f3d
00000320: 44f4 6b3d bc8a b83d 4bc9 783b f060 483d
00000330: a40b 86bc 33c1 ec3c ee8f 413d 6663 4fbd
00000340: 1cd4 59bd b4ee c8bc 074a 62bd 36aa 52bb
00000350: 51fc 27bd 7353 adbd 61ab 79bd 3cc3 0ebd
00000360: aeab 4f3a 6732 3c3c 248e e53d 386f 7d3d
00000370: 581d a9bd 4d05 62bc 6d5a a43d c57d 21bd
00000380: cfb7 18bc 59f7 02bc 9f99 323e 74dc 473b
00000390: 52f0 a53a e7e9 bd3d d3c6 393e 85a5 cabc
000003a0: 9877 d4bd 9c02 db3c 6083 2abc 960c 6fbc
000003b0: 7088 e03d a6e0 4abd a491 c43c 27cf 4f3d
000003c0: 5517 043d 97c8 bc3d 54fa 603d 6c86 033b
000003d0: f0ad aa3a 90ab 873e 1959 a63d b9f9 103e
000003e0: 466f 90bd fdb3 1cbc b955 1e3d 8f0e 683d
000003f0: ba94 04bd f97a 8dbd 469a 82bd ef6f 66bb

rho.2.bias f4 [98]
0.1628008 0.4445478 0.06163441 0.46611458 0.16163412 -0.52877825 0.15620863 -0.42522
0.0051616007 0.48617828 -0.08301076 -0.6119604 0.0230671 0.47602296 0.15515013 -0.45999148
0.25139585 0.22115234 0.15545243 -0.4752649 0.3242477 0.100818984 0.12825604 0.75524175
0.118829 0.54935396 0.20156376 0.49306992 0.055859335 0.44556788 0.13885342 0.44354817
0.0062224776 -0.44490436 0.039991744 -0.46318966 0.10900833 -0.60923815 -0.060952015 0.5900824
0.063173786 0.4358828 0.25944102 -0.2057973 0.03955199 0.46772346 -0.03271945 -0.39243814
-0.57443404 0.8429171 0.09874529 0.62948436 0.12969331 0.4807801 0.51456666 0.19814758
0.31503874 -0.14496587 0.120426595 -0.4735837 -0.021570636 0.4649541 -0.0040887273 0.5427553
-0.41130337 -0.18529135 0.39438033 0.09352219 0.41730583 -0.1114025 -0.6205102 0.74196506
0.5534099 0.042820927 0.51563686 -0.32858473 -0.6167862 -0.82750976 0.17560273 -0.78398585
0.46436507 0.36566123 -0.5385617 -0.7866246 0.12934405 0.4785766 0.071076885 -0.5255716
0.114581905 0.6475641 0.12187671 -0.5457141 0.52094835 0.1653459 0.027390346 0.44437853
-0.5983914 -0.70210946
00000000: 41b5 263e c59b e33e 5d74 7c3d 92a6 ee3e
00000010: 6a83 253e 035e 07bf 28f5 1f3e 70b6 d9be
00000020: a522 a93b 5cec f83e 8c01 aabd 70a9 1cbf
00000030: 37f7 bc3c 48b9 f33e addf 1e3e 0184 ebbe
00000040: f5b6 803e c275 623e ec2e 1f3e ec55 f3be
00000050: cb03 a63e 2f7a ce3d 8d55 033e 8657 413f
00000060: 9e5c f33d 76a2 0c3f bb66 4e3e a973 fc3e
00000070: c2cc 643d 7921 e43e 972f 0e3e bf18 e33e
00000080: ede5 cb3b 81ca e3be 62ce 233d 3227 edbe
00000090: c23f df3d 08f7 1bbf d2a8 79bd a40f 173f
000000a0: 4261 813d 082c df3e 74d5 843e 87bc 52be
000000b0: 4401 223d 7379 ef3e d404 06bd a7ed c8be
000000c0: 1c0e 13bf 6ac9 573f f83a ca3d e325 213f
000000d0: 53ce 043e cf28 f63e a4ba 033f 33e7 4a3e
000000e0: c24c a13e ef71 14be 38a2 f63d 9079 f2be
000000f0: e7b4 b0bc 770e ee3e bbfa 85bb 03f2 0a3f
00000100: 5b96 d2be 04bd 3dbe 38ec c93e 9088 bf3d
00000110: 1ca9 d53e fe26 e4bd c2d9 1ebf 6cf1 3d3f
00000120: 45ac 0d3f ff64 2f3d c700 043f 423c a8be
00000130: b3e5 1dbf aed7 53bf 34d1 333e 4cb3 48bf
00000140: 42c1 ed3e f337 bb3e 2edf 09bf 3b60 49bf
00000150: c472 043e fe07 f53e c290 913d dc8b 06bf
00000160: eba9 ea3d c3c6 253f 7f9a f93d ebb3 0bbf
00000170: df5c 053f 7050 293e b861 e03c 9585 e33e
00000180: 2e30 19bf 72bd 33bf
